{"format": "graph-model", "generatedBy": "2.11.1", "convertedBy": "TensorFlow.js Converter v3.21.0", "signature": {"outputs": {"Identity:0": {"name": "Identity:0"}}}, "modelTopology": {"node": [{"name": "ConstantFolding/PartitionedCall/model_8/tf.math.divide/truediv_recip", "op": "Const", "attr": {"dtype": {"type": "DT_FLOAT"}, "value": {"tensor": {"dtype": "DT_FLOAT", "tensorShape": {"dim": [{"size": "1"}, {"size": "1"}, {"size": "1"}]}}}}}, {"name": "13836", "op": "Const", "attr": {"dtype": {"type": "DT_FLOAT"}, "value": {"tensor": {"dtype": "DT_FLOAT", "tensorShape": {"dim": [{"size": "1"}, {"size": "2"}, {"size": "8400"}]}}}}}, {"name": "13828", "op": "Const", "attr": {"dtype": {"type": "DT_INT64"}, "value": {"tensor": {"dtype": "DT_INT64", "tensorShape": {"dim": [{"size": "3"}]}}}}}, {"name": "13830", "op": "Const", "attr": {"dtype": {"type": "DT_INT64"}, "value": {"tensor": {"dtype": "DT_INT64", "tensorShape": {"dim": [{"size": "3"}]}}}}}, {"name": "PartitionedCall/model_8/tf.strided_slice_19/ones_like", "op": "Const", "attr": {"value": {"tensor": {"dtype": "DT_INT64", "tensorShape": {"dim": [{"size": "3"}]}}}, "dtype": {"type": "DT_INT64"}}}, {"name": "13838", "op": "Const", "attr": {"dtype": {"type": "DT_FLOAT"}, "value": {"tensor": {"dtype": "DT_FLOAT", "tensorShape": {"dim": [{"size": "1"}, {"size": "2"}, {"size": "8400"}]}}}}}, {"name": "13822", "op": "Const", "attr": {"dtype": {"type": "DT_INT64"}, "value": {"tensor": {"dtype": "DT_INT64", "tensorShape": {"dim": [{"size": "3"}]}}}}}, {"name": "13824", "op": "Const", "attr": {"dtype": {"type": "DT_INT64"}, "value": {"tensor": {"dtype": "DT_INT64", "tensorShape": {"dim": [{"size": "3"}]}}}}}, {"name": "PartitionedCall/model_8/tf.strided_slice_16/StridedSlice/strides", "op": "Const", "attr": {"value": {"tensor": {"dtype": "DT_INT64", "tensorShape": {"dim": [{"size": "3"}]}}}, "dtype": {"type": "DT_INT64"}}}, {"name": "PartitionedCall/model_8/tf.reshape_3/Reshape/shape", "op": "Const", "attr": {"dtype": {"type": "DT_INT32"}, "value": {"tensor": {"dtype": "DT_INT32", "tensorShape": {"dim": [{"size": "4"}]}}}}}, {"name": "PartitionedCall/model_8/tf.compat.v1.transpose_10/transpose/perm", "op": "Const", "attr": {"dtype": {"type": "DT_INT32"}, "value": {"tensor": {"dtype": "DT_INT32", "tensorShape": {"dim": [{"size": "4"}]}}}}}, {"name": "PartitionedCall/model_8/tf.compat.v1.transpose_11/transpose/perm", "op": "Const", "attr": {"dtype": {"type": "DT_INT32"}, "value": {"tensor": {"dtype": "DT_INT32", "tensorShape": {"dim": [{"size": "4"}]}}}}}, {"name": "13826", "op": "Const", "attr": {"dtype": {"type": "DT_FLOAT"}, "value": {"tensor": {"dtype": "DT_FLOAT", "tensorShape": {"dim": [{"size": "1"}, {"size": "1"}, {"size": "16"}, {"size": "1"}]}}}}}, {"name": "PartitionedCall/model_8/tf.compat.v1.transpose_14/transpose/perm", "op": "Const", "attr": {"dtype": {"type": "DT_INT32"}, "value": {"tensor": {"dtype": "DT_INT32", "tensorShape": {"dim": [{"size": "4"}]}}}}}, {"name": "PartitionedCall/model_8/tf.reshape_4/Reshape/shape", "op": "Const", "attr": {"dtype": {"type": "DT_INT32"}, "value": {"tensor": {"dtype": "DT_INT32", "tensorShape": {"dim": [{"size": "3"}]}}}}}, {"name": "13832", "op": "Const", "attr": {"dtype": {"type": "DT_INT64"}, "value": {"tensor": {"dtype": "DT_INT64", "tensorShape": {"dim": [{"size": "3"}]}}}}}, {"name": "13834", "op": "Const", "attr": {"dtype": {"type": "DT_INT64"}, "value": {"tensor": {"dtype": "DT_INT64", "tensorShape": {"dim": [{"size": "3"}]}}}}}, {"name": "PartitionedCall/model_8/tf.strided_slice_18/ones_like", "op": "Const", "attr": {"dtype": {"type": "DT_INT64"}, "value": {"tensor": {"dtype": "DT_INT64", "tensorShape": {"dim": [{"size": "3"}]}}}}}, {"name": "PartitionedCall/model_8/tf.concat_17/concat/axis", "op": "Const", "attr": {"dtype": {"type": "DT_INT32"}, "value": {"tensor": {"dtype": "DT_INT32", "tensorShape": {}}}}}, {"name": "PartitionedCall/model_8/tf.math.multiply_252/Mul/y", "op": "Const", "attr": {"dtype": {"type": "DT_FLOAT"}, "value": {"tensor": {"dtype": "DT_FLOAT", "tensorShape": {"dim": [{"size": "1"}, {"size": "1"}, {"size": "8400"}]}}}}}, {"name": "13762", "op": "Const", "attr": {"value": {"tensor": {"dtype": "DT_FLOAT", "tensorShape": {"dim": [{"size": "3"}, {"size": "3"}, {"size": "64"}, {"size": "64"}]}}}, "dtype": {"type": "DT_FLOAT"}}}, {"name": "13772", "op": "Const", "attr": {"dtype": {"type": "DT_FLOAT"}, "value": {"tensor": {"dtype": "DT_FLOAT", "tensorShape": {"dim": [{"size": "64"}]}}}}}, {"name": "13786", "op": "Const", "attr": {"dtype": {"type": "DT_FLOAT"}, "value": {"tensor": {"dtype": "DT_FLOAT", "tensorShape": {"dim": [{"size": "3"}, {"size": "3"}, {"size": "64"}, {"size": "64"}]}}}}}, {"name": "13796", "op": "Const", "attr": {"dtype": {"type": "DT_FLOAT"}, "value": {"tensor": {"dtype": "DT_FLOAT", "tensorShape": {"dim": [{"size": "64"}]}}}}}, {"name": "13808", "op": "Const", "attr": {"dtype": {"type": "DT_FLOAT"}, "value": {"tensor": {"dtype": "DT_FLOAT", "tensorShape": {"dim": [{"size": "1"}, {"size": "1"}, {"size": "64"}, {"size": "64"}]}}}}}, {"name": "13818", "op": "Const", "attr": {"dtype": {"type": "DT_FLOAT"}, "value": {"tensor": {"dtype": "DT_FLOAT", "tensorShape": {"dim": [{"size": "64"}]}}}}}, {"name": "13748", "op": "Const", "attr": {"dtype": {"type": "DT_FLOAT"}, "value": {"tensor": {"dtype": "DT_FLOAT", "tensorShape": {"dim": [{"size": "3"}, {"size": "3"}, {"size": "64"}, {"size": "80"}]}}}}}, {"name": "13752", "op": "Const", "attr": {"dtype": {"type": "DT_FLOAT"}, "value": {"tensor": {"dtype": "DT_FLOAT", "tensorShape": {"dim": [{"size": "80"}]}}}}}, {"name": "13774", "op": "Const", "attr": {"dtype": {"type": "DT_FLOAT"}, "value": {"tensor": {"dtype": "DT_FLOAT", "tensorShape": {"dim": [{"size": "3"}, {"size": "3"}, {"size": "80"}, {"size": "80"}]}}}}}, {"name": "13776", "op": "Const", "attr": {"dtype": {"type": "DT_FLOAT"}, "value": {"tensor": {"dtype": "DT_FLOAT", "tensorShape": {"dim": [{"size": "80"}]}}}}}, {"name": "13806", "op": "Const", "attr": {"dtype": {"type": "DT_FLOAT"}, "value": {"tensor": {"dtype": "DT_FLOAT", "tensorShape": {"dim": [{"size": "1"}, {"size": "1"}, {"size": "80"}, {"size": "80"}]}}}}}, {"name": "13820", "op": "Const", "attr": {"dtype": {"type": "DT_FLOAT"}, "value": {"tensor": {"dtype": "DT_FLOAT", "tensorShape": {"dim": [{"size": "80"}]}}}}}, {"name": "PartitionedCall/model_8/tf.concat_10/concat/axis", "op": "Const", "attr": {"dtype": {"type": "DT_INT32"}, "value": {"tensor": {"dtype": "DT_INT32", "tensorShape": {}}}}}, {"name": "PartitionedCall/model_8/tf.compat.v1.transpose_6/transpose/perm", "op": "Const", "attr": {"dtype": {"type": "DT_INT32"}, "value": {"tensor": {"dtype": "DT_INT32", "tensorShape": {"dim": [{"size": "4"}]}}}}}, {"name": "PartitionedCall/model_8/tf.reshape/Reshape/shape", "op": "Const", "attr": {"dtype": {"type": "DT_INT32"}, "value": {"tensor": {"dtype": "DT_INT32", "tensorShape": {"dim": [{"size": "3"}]}}}}}, {"name": "13760", "op": "Const", "attr": {"dtype": {"type": "DT_FLOAT"}, "value": {"tensor": {"dtype": "DT_FLOAT", "tensorShape": {"dim": [{"size": "3"}, {"size": "3"}, {"size": "128"}, {"size": "64"}]}}}}}, {"name": "13770", "op": "Const", "attr": {"dtype": {"type": "DT_FLOAT"}, "value": {"tensor": {"dtype": "DT_FLOAT", "tensorShape": {"dim": [{"size": "64"}]}}}}}, {"name": "13784", "op": "Const", "attr": {"dtype": {"type": "DT_FLOAT"}, "value": {"tensor": {"dtype": "DT_FLOAT", "tensorShape": {"dim": [{"size": "3"}, {"size": "3"}, {"size": "64"}, {"size": "64"}]}}}}}, {"name": "13794", "op": "Const", "attr": {"dtype": {"type": "DT_FLOAT"}, "value": {"tensor": {"dtype": "DT_FLOAT", "tensorShape": {"dim": [{"size": "64"}]}}}}}, {"name": "13804", "op": "Const", "attr": {"dtype": {"type": "DT_FLOAT"}, "value": {"tensor": {"dtype": "DT_FLOAT", "tensorShape": {"dim": [{"size": "1"}, {"size": "1"}, {"size": "64"}, {"size": "64"}]}}}}}, {"name": "13814", "op": "Const", "attr": {"dtype": {"type": "DT_FLOAT"}, "value": {"tensor": {"dtype": "DT_FLOAT", "tensorShape": {"dim": [{"size": "64"}]}}}}}, {"name": "13758", "op": "Const", "attr": {"dtype": {"type": "DT_FLOAT"}, "value": {"tensor": {"dtype": "DT_FLOAT", "tensorShape": {"dim": [{"size": "3"}, {"size": "3"}, {"size": "128"}, {"size": "80"}]}}}}}, {"name": "13768", "op": "Const", "attr": {"dtype": {"type": "DT_FLOAT"}, "value": {"tensor": {"dtype": "DT_FLOAT", "tensorShape": {"dim": [{"size": "80"}]}}}}}, {"name": "13782", "op": "Const", "attr": {"dtype": {"type": "DT_FLOAT"}, "value": {"tensor": {"dtype": "DT_FLOAT", "tensorShape": {"dim": [{"size": "3"}, {"size": "3"}, {"size": "80"}, {"size": "80"}]}}}}}, {"name": "13792", "op": "Const", "attr": {"dtype": {"type": "DT_FLOAT"}, "value": {"tensor": {"dtype": "DT_FLOAT", "tensorShape": {"dim": [{"size": "80"}]}}}}}, {"name": "13802", "op": "Const", "attr": {"dtype": {"type": "DT_FLOAT"}, "value": {"tensor": {"dtype": "DT_FLOAT", "tensorShape": {"dim": [{"size": "1"}, {"size": "1"}, {"size": "80"}, {"size": "80"}]}}}}}, {"name": "13816", "op": "Const", "attr": {"dtype": {"type": "DT_FLOAT"}, "value": {"tensor": {"dtype": "DT_FLOAT", "tensorShape": {"dim": [{"size": "80"}]}}}}}, {"name": "PartitionedCall/model_8/tf.concat_13/concat/axis", "op": "Const", "attr": {"dtype": {"type": "DT_INT32"}, "value": {"tensor": {"dtype": "DT_INT32", "tensorShape": {}}}}}, {"name": "PartitionedCall/model_8/tf.compat.v1.transpose_7/transpose/perm", "op": "Const", "attr": {"dtype": {"type": "DT_INT32"}, "value": {"tensor": {"dtype": "DT_INT32", "tensorShape": {"dim": [{"size": "4"}]}}}}}, {"name": "PartitionedCall/model_8/tf.reshape_1/Reshape/shape", "op": "Const", "attr": {"dtype": {"type": "DT_INT32"}, "value": {"tensor": {"dtype": "DT_INT32", "tensorShape": {"dim": [{"size": "3"}]}}}}}, {"name": "13756", "op": "Const", "attr": {"dtype": {"type": "DT_FLOAT"}, "value": {"tensor": {"dtype": "DT_FLOAT", "tensorShape": {"dim": [{"size": "3"}, {"size": "3"}, {"size": "256"}, {"size": "64"}]}}}}}, {"name": "13766", "op": "Const", "attr": {"value": {"tensor": {"dtype": "DT_FLOAT", "tensorShape": {"dim": [{"size": "64"}]}}}, "dtype": {"type": "DT_FLOAT"}}}, {"name": "13780", "op": "Const", "attr": {"dtype": {"type": "DT_FLOAT"}, "value": {"tensor": {"dtype": "DT_FLOAT", "tensorShape": {"dim": [{"size": "3"}, {"size": "3"}, {"size": "64"}, {"size": "64"}]}}}}}, {"name": "13790", "op": "Const", "attr": {"dtype": {"type": "DT_FLOAT"}, "value": {"tensor": {"dtype": "DT_FLOAT", "tensorShape": {"dim": [{"size": "64"}]}}}}}, {"name": "13800", "op": "Const", "attr": {"dtype": {"type": "DT_FLOAT"}, "value": {"tensor": {"dtype": "DT_FLOAT", "tensorShape": {"dim": [{"size": "1"}, {"size": "1"}, {"size": "64"}, {"size": "64"}]}}}}}, {"name": "13810", "op": "Const", "attr": {"value": {"tensor": {"dtype": "DT_FLOAT", "tensorShape": {"dim": [{"size": "64"}]}}}, "dtype": {"type": "DT_FLOAT"}}}, {"name": "13742", "op": "Const", "attr": {"dtype": {"type": "DT_INT64"}, "value": {"tensor": {"dtype": "DT_INT64", "tensorShape": {"dim": [{"size": "4"}]}}}}}, {"name": "13744", "op": "Const", "attr": {"dtype": {"type": "DT_INT64"}, "value": {"tensor": {"dtype": "DT_INT64", "tensorShape": {"dim": [{"size": "4"}]}}}}}, {"name": "PartitionedCall/model_8/tf.strided_slice_14/ones_like", "op": "Const", "attr": {"dtype": {"type": "DT_INT64"}, "value": {"tensor": {"dtype": "DT_INT64", "tensorShape": {"dim": [{"size": "4"}]}}}}}, {"name": "13712", "op": "Const", "attr": {"dtype": {"type": "DT_INT64"}, "value": {"tensor": {"dtype": "DT_INT64", "tensorShape": {"dim": [{"size": "4"}]}}}}}, {"name": "13714", "op": "Const", "attr": {"value": {"tensor": {"dtype": "DT_INT64", "tensorShape": {"dim": [{"size": "4"}]}}}, "dtype": {"type": "DT_INT64"}}}, {"name": "PartitionedCall/model_8/tf.strided_slice_12/ones_like", "op": "Const", "attr": {"dtype": {"type": "DT_INT64"}, "value": {"tensor": {"dtype": "DT_INT64", "tensorShape": {"dim": [{"size": "4"}]}}}}}, {"name": "13682", "op": "Const", "attr": {"value": {"tensor": {"dtype": "DT_INT64", "tensorShape": {"dim": [{"size": "4"}]}}}, "dtype": {"type": "DT_INT64"}}}, {"name": "13684", "op": "Const", "attr": {"dtype": {"type": "DT_INT64"}, "value": {"tensor": {"dtype": "DT_INT64", "tensorShape": {"dim": [{"size": "4"}]}}}}}, {"name": "PartitionedCall/model_8/tf.strided_slice_10/ones_like", "op": "Const", "attr": {"value": {"tensor": {"dtype": "DT_INT64", "tensorShape": {"dim": [{"size": "4"}]}}}, "dtype": {"type": "DT_INT64"}}}, {"name": "PartitionedCall/model_8/lambda_1//model.13/Resize/size", "op": "Const", "attr": {"dtype": {"type": "DT_INT32"}, "value": {"tensor": {"dtype": "DT_INT32", "tensorShape": {"dim": [{"size": "2"}]}}}}}, {"name": "PartitionedCall/model_8/tf.concat_7/concat/axis", "op": "Const", "attr": {"value": {"tensor": {"dtype": "DT_INT32", "tensorShape": {}}}, "dtype": {"type": "DT_INT32"}}}, {"name": "13666", "op": "Const", "attr": {"dtype": {"type": "DT_FLOAT"}, "value": {"tensor": {"dtype": "DT_FLOAT", "tensorShape": {"dim": [{"size": "1"}, {"size": "1"}, {"size": "192"}, {"size": "64"}]}}}}}, {"name": "13668", "op": "Const", "attr": {"dtype": {"type": "DT_FLOAT"}, "value": {"tensor": {"dtype": "DT_FLOAT", "tensorShape": {"dim": [{"size": "64"}]}}}}}, {"name": "13670", "op": "Const", "attr": {"dtype": {"type": "DT_INT64"}, "value": {"tensor": {"dtype": "DT_INT64", "tensorShape": {"dim": [{"size": "4"}]}}}}}, {"name": "13672", "op": "Const", "attr": {"dtype": {"type": "DT_INT64"}, "value": {"tensor": {"dtype": "DT_INT64", "tensorShape": {"dim": [{"size": "4"}]}}}}}, {"name": "PartitionedCall/model_8/tf.strided_slice_11/ones_like", "op": "Const", "attr": {"dtype": {"type": "DT_INT64"}, "value": {"tensor": {"dtype": "DT_INT64", "tensorShape": {"dim": [{"size": "4"}]}}}}}, {"name": "13674", "op": "Const", "attr": {"value": {"tensor": {"dtype": "DT_FLOAT", "tensorShape": {"dim": [{"size": "3"}, {"size": "3"}, {"size": "32"}, {"size": "32"}]}}}, "dtype": {"type": "DT_FLOAT"}}}, {"name": "13676", "op": "Const", "attr": {"value": {"tensor": {"dtype": "DT_FLOAT", "tensorShape": {"dim": [{"size": "32"}]}}}, "dtype": {"type": "DT_FLOAT"}}}, {"name": "13678", "op": "Const", "attr": {"value": {"tensor": {"dtype": "DT_FLOAT", "tensorShape": {"dim": [{"size": "3"}, {"size": "3"}, {"size": "32"}, {"size": "32"}]}}}, "dtype": {"type": "DT_FLOAT"}}}, {"name": "13680", "op": "Const", "attr": {"value": {"tensor": {"dtype": "DT_FLOAT", "tensorShape": {"dim": [{"size": "32"}]}}}, "dtype": {"type": "DT_FLOAT"}}}, {"name": "PartitionedCall/model_8/tf.concat_8/concat/axis", "op": "Const", "attr": {"dtype": {"type": "DT_INT32"}, "value": {"tensor": {"dtype": "DT_INT32", "tensorShape": {}}}}}, {"name": "13686", "op": "Const", "attr": {"value": {"tensor": {"dtype": "DT_FLOAT", "tensorShape": {"dim": [{"size": "1"}, {"size": "1"}, {"size": "96"}, {"size": "64"}]}}}, "dtype": {"type": "DT_FLOAT"}}}, {"name": "13688", "op": "Const", "attr": {"value": {"tensor": {"dtype": "DT_FLOAT", "tensorShape": {"dim": [{"size": "64"}]}}}, "dtype": {"type": "DT_FLOAT"}}}, {"name": "13690", "op": "Const", "attr": {"dtype": {"type": "DT_INT32"}, "value": {"tensor": {"dtype": "DT_INT32", "tensorShape": {"dim": [{"size": "4"}, {"size": "2"}]}}}}}, {"name": "13692", "op": "Const", "attr": {"value": {"tensor": {"dtype": "DT_FLOAT", "tensorShape": {"dim": [{"size": "3"}, {"size": "3"}, {"size": "64"}, {"size": "64"}]}}}, "dtype": {"type": "DT_FLOAT"}}}, {"name": "13694", "op": "Const", "attr": {"dtype": {"type": "DT_FLOAT"}, "value": {"tensor": {"dtype": "DT_FLOAT", "tensorShape": {"dim": [{"size": "64"}]}}}}}, {"name": "13658", "op": "Const", "attr": {"dtype": {"type": "DT_INT64"}, "value": {"tensor": {"dtype": "DT_INT64", "tensorShape": {"dim": [{"size": "4"}]}}}}}, {"name": "13660", "op": "Const", "attr": {"dtype": {"type": "DT_INT64"}, "value": {"tensor": {"dtype": "DT_INT64", "tensorShape": {"dim": [{"size": "4"}]}}}}}, {"name": "PartitionedCall/model_8/tf.strided_slice_8/ones_like", "op": "Const", "attr": {"value": {"tensor": {"dtype": "DT_INT64", "tensorShape": {"dim": [{"size": "4"}]}}}, "dtype": {"type": "DT_INT64"}}}, {"name": "PartitionedCall/model_8/lambda//model.10/Resize/size", "op": "Const", "attr": {"value": {"tensor": {"dtype": "DT_INT32", "tensorShape": {"dim": [{"size": "2"}]}}}, "dtype": {"type": "DT_INT32"}}}, {"name": "PartitionedCall/model_8/tf.concat_5/concat/axis", "op": "Const", "attr": {"value": {"tensor": {"dtype": "DT_INT32", "tensorShape": {}}}, "dtype": {"type": "DT_INT32"}}}, {"name": "13642", "op": "Const", "attr": {"dtype": {"type": "DT_FLOAT"}, "value": {"tensor": {"dtype": "DT_FLOAT", "tensorShape": {"dim": [{"size": "1"}, {"size": "1"}, {"size": "384"}, {"size": "128"}]}}}}}, {"name": "13644", "op": "Const", "attr": {"dtype": {"type": "DT_FLOAT"}, "value": {"tensor": {"dtype": "DT_FLOAT", "tensorShape": {"dim": [{"size": "128"}]}}}}}, {"name": "13646", "op": "Const", "attr": {"value": {"tensor": {"dtype": "DT_INT64", "tensorShape": {"dim": [{"size": "4"}]}}}, "dtype": {"type": "DT_INT64"}}}, {"name": "13648", "op": "Const", "attr": {"dtype": {"type": "DT_INT64"}, "value": {"tensor": {"dtype": "DT_INT64", "tensorShape": {"dim": [{"size": "4"}]}}}}}, {"name": "PartitionedCall/model_8/tf.strided_slice_9/ones_like", "op": "Const", "attr": {"value": {"tensor": {"dtype": "DT_INT64", "tensorShape": {"dim": [{"size": "4"}]}}}, "dtype": {"type": "DT_INT64"}}}, {"name": "13650", "op": "Const", "attr": {"dtype": {"type": "DT_FLOAT"}, "value": {"tensor": {"dtype": "DT_FLOAT", "tensorShape": {"dim": [{"size": "3"}, {"size": "3"}, {"size": "64"}, {"size": "64"}]}}}}}, {"name": "13652", "op": "Const", "attr": {"dtype": {"type": "DT_FLOAT"}, "value": {"tensor": {"dtype": "DT_FLOAT", "tensorShape": {"dim": [{"size": "64"}]}}}}}, {"name": "13654", "op": "Const", "attr": {"dtype": {"type": "DT_FLOAT"}, "value": {"tensor": {"dtype": "DT_FLOAT", "tensorShape": {"dim": [{"size": "3"}, {"size": "3"}, {"size": "64"}, {"size": "64"}]}}}}}, {"name": "13656", "op": "Const", "attr": {"value": {"tensor": {"dtype": "DT_FLOAT", "tensorShape": {"dim": [{"size": "64"}]}}}, "dtype": {"type": "DT_FLOAT"}}}, {"name": "PartitionedCall/model_8/tf.concat_6/concat/axis", "op": "Const", "attr": {"value": {"tensor": {"dtype": "DT_INT32", "tensorShape": {}}}, "dtype": {"type": "DT_INT32"}}}, {"name": "13662", "op": "Const", "attr": {"dtype": {"type": "DT_FLOAT"}, "value": {"tensor": {"dtype": "DT_FLOAT", "tensorShape": {"dim": [{"size": "1"}, {"size": "1"}, {"size": "192"}, {"size": "128"}]}}}}}, {"name": "13664", "op": "Const", "attr": {"dtype": {"type": "DT_FLOAT"}, "value": {"tensor": {"dtype": "DT_FLOAT", "tensorShape": {"dim": [{"size": "128"}]}}}}}, {"name": "PartitionedCall/model_8/tf.concat_9/concat/axis", "op": "Const", "attr": {"dtype": {"type": "DT_INT32"}, "value": {"tensor": {"dtype": "DT_INT32", "tensorShape": {}}}}}, {"name": "13696", "op": "Const", "attr": {"value": {"tensor": {"dtype": "DT_FLOAT", "tensorShape": {"dim": [{"size": "1"}, {"size": "1"}, {"size": "192"}, {"size": "128"}]}}}, "dtype": {"type": "DT_FLOAT"}}}, {"name": "13698", "op": "Const", "attr": {"dtype": {"type": "DT_FLOAT"}, "value": {"tensor": {"dtype": "DT_FLOAT", "tensorShape": {"dim": [{"size": "128"}]}}}}}, {"name": "13700", "op": "Const", "attr": {"dtype": {"type": "DT_INT64"}, "value": {"tensor": {"dtype": "DT_INT64", "tensorShape": {"dim": [{"size": "4"}]}}}}}, {"name": "13702", "op": "Const", "attr": {"value": {"tensor": {"dtype": "DT_INT64", "tensorShape": {"dim": [{"size": "4"}]}}}, "dtype": {"type": "DT_INT64"}}}, {"name": "PartitionedCall/model_8/tf.strided_slice_13/ones_like", "op": "Const", "attr": {"dtype": {"type": "DT_INT64"}, "value": {"tensor": {"dtype": "DT_INT64", "tensorShape": {"dim": [{"size": "4"}]}}}}}, {"name": "13704", "op": "Const", "attr": {"value": {"tensor": {"dtype": "DT_FLOAT", "tensorShape": {"dim": [{"size": "3"}, {"size": "3"}, {"size": "64"}, {"size": "64"}]}}}, "dtype": {"type": "DT_FLOAT"}}}, {"name": "13706", "op": "Const", "attr": {"value": {"tensor": {"dtype": "DT_FLOAT", "tensorShape": {"dim": [{"size": "64"}]}}}, "dtype": {"type": "DT_FLOAT"}}}, {"name": "13708", "op": "Const", "attr": {"value": {"tensor": {"dtype": "DT_FLOAT", "tensorShape": {"dim": [{"size": "3"}, {"size": "3"}, {"size": "64"}, {"size": "64"}]}}}, "dtype": {"type": "DT_FLOAT"}}}, {"name": "13710", "op": "Const", "attr": {"value": {"tensor": {"dtype": "DT_FLOAT", "tensorShape": {"dim": [{"size": "64"}]}}}, "dtype": {"type": "DT_FLOAT"}}}, {"name": "PartitionedCall/model_8/tf.concat_11/concat/axis", "op": "Const", "attr": {"dtype": {"type": "DT_INT32"}, "value": {"tensor": {"dtype": "DT_INT32", "tensorShape": {}}}}}, {"name": "13716", "op": "Const", "attr": {"value": {"tensor": {"dtype": "DT_FLOAT", "tensorShape": {"dim": [{"size": "1"}, {"size": "1"}, {"size": "192"}, {"size": "128"}]}}}, "dtype": {"type": "DT_FLOAT"}}}, {"name": "13718", "op": "Const", "attr": {"value": {"tensor": {"dtype": "DT_FLOAT", "tensorShape": {"dim": [{"size": "128"}]}}}, "dtype": {"type": "DT_FLOAT"}}}, {"name": "13720", "op": "Const", "attr": {"dtype": {"type": "DT_INT32"}, "value": {"tensor": {"dtype": "DT_INT32", "tensorShape": {"dim": [{"size": "4"}, {"size": "2"}]}}}}}, {"name": "13722", "op": "Const", "attr": {"dtype": {"type": "DT_FLOAT"}, "value": {"tensor": {"dtype": "DT_FLOAT", "tensorShape": {"dim": [{"size": "3"}, {"size": "3"}, {"size": "128"}, {"size": "128"}]}}}}}, {"name": "13724", "op": "Const", "attr": {"dtype": {"type": "DT_FLOAT"}, "value": {"tensor": {"dtype": "DT_FLOAT", "tensorShape": {"dim": [{"size": "128"}]}}}}}, {"name": "13626", "op": "Const", "attr": {"dtype": {"type": "DT_INT64"}, "value": {"tensor": {"dtype": "DT_INT64", "tensorShape": {"dim": [{"size": "4"}]}}}}}, {"name": "13628", "op": "Const", "attr": {"dtype": {"type": "DT_INT64"}, "value": {"tensor": {"dtype": "DT_INT64", "tensorShape": {"dim": [{"size": "4"}]}}}}}, {"name": "PartitionedCall/model_8/tf.strided_slice_6/ones_like", "op": "Const", "attr": {"dtype": {"type": "DT_INT64"}, "value": {"tensor": {"dtype": "DT_INT64", "tensorShape": {"dim": [{"size": "4"}]}}}}}, {"name": "13596", "op": "Const", "attr": {"dtype": {"type": "DT_INT64"}, "value": {"tensor": {"dtype": "DT_INT64", "tensorShape": {"dim": [{"size": "4"}]}}}}}, {"name": "13598", "op": "Const", "attr": {"value": {"tensor": {"dtype": "DT_INT64", "tensorShape": {"dim": [{"size": "4"}]}}}, "dtype": {"type": "DT_INT64"}}}, {"name": "PartitionedCall/model_8/tf.strided_slice_4/ones_like", "op": "Const", "attr": {"dtype": {"type": "DT_INT64"}, "value": {"tensor": {"dtype": "DT_INT64", "tensorShape": {"dim": [{"size": "4"}]}}}}}, {"name": "13558", "op": "Const", "attr": {"value": {"tensor": {"dtype": "DT_INT64", "tensorShape": {"dim": [{"size": "4"}]}}}, "dtype": {"type": "DT_INT64"}}}, {"name": "13560", "op": "Const", "attr": {"dtype": {"type": "DT_INT64"}, "value": {"tensor": {"dtype": "DT_INT64", "tensorShape": {"dim": [{"size": "4"}]}}}}}, {"name": "PartitionedCall/model_8/tf.strided_slice_2/ones_like", "op": "Const", "attr": {"dtype": {"type": "DT_INT64"}, "value": {"tensor": {"dtype": "DT_INT64", "tensorShape": {"dim": [{"size": "4"}]}}}}}, {"name": "13520", "op": "Const", "attr": {"value": {"tensor": {"dtype": "DT_INT64", "tensorShape": {"dim": [{"size": "4"}]}}}, "dtype": {"type": "DT_INT64"}}}, {"name": "13522", "op": "Const", "attr": {"dtype": {"type": "DT_INT64"}, "value": {"tensor": {"dtype": "DT_INT64", "tensorShape": {"dim": [{"size": "4"}]}}}}}, {"name": "PartitionedCall/model_8/tf.strided_slice/ones_like", "op": "Const", "attr": {"value": {"tensor": {"dtype": "DT_INT64", "tensorShape": {"dim": [{"size": "4"}]}}}, "dtype": {"type": "DT_INT64"}}}, {"name": "13492", "op": "Const", "attr": {"value": {"tensor": {"dtype": "DT_INT32", "tensorShape": {"dim": [{"size": "4"}, {"size": "2"}]}}}, "dtype": {"type": "DT_INT32"}}}, {"name": "13494", "op": "Const", "attr": {"dtype": {"type": "DT_FLOAT"}, "value": {"tensor": {"dtype": "DT_FLOAT", "tensorShape": {"dim": [{"size": "3"}, {"size": "3"}, {"size": "3"}, {"size": "16"}]}}}}}, {"name": "13496", "op": "Const", "attr": {"value": {"tensor": {"dtype": "DT_FLOAT", "tensorShape": {"dim": [{"size": "16"}]}}}, "dtype": {"type": "DT_FLOAT"}}}, {"name": "13498", "op": "Const", "attr": {"value": {"tensor": {"dtype": "DT_INT32", "tensorShape": {"dim": [{"size": "4"}, {"size": "2"}]}}}, "dtype": {"type": "DT_INT32"}}}, {"name": "13500", "op": "Const", "attr": {"value": {"tensor": {"dtype": "DT_FLOAT", "tensorShape": {"dim": [{"size": "3"}, {"size": "3"}, {"size": "16"}, {"size": "32"}]}}}, "dtype": {"type": "DT_FLOAT"}}}, {"name": "13502", "op": "Const", "attr": {"value": {"tensor": {"dtype": "DT_FLOAT", "tensorShape": {"dim": [{"size": "32"}]}}}, "dtype": {"type": "DT_FLOAT"}}}, {"name": "13504", "op": "Const", "attr": {"dtype": {"type": "DT_FLOAT"}, "value": {"tensor": {"dtype": "DT_FLOAT", "tensorShape": {"dim": [{"size": "1"}, {"size": "1"}, {"size": "32"}, {"size": "32"}]}}}}}, {"name": "13506", "op": "Const", "attr": {"value": {"tensor": {"dtype": "DT_FLOAT", "tensorShape": {"dim": [{"size": "32"}]}}}, "dtype": {"type": "DT_FLOAT"}}}, {"name": "13508", "op": "Const", "attr": {"dtype": {"type": "DT_INT64"}, "value": {"tensor": {"dtype": "DT_INT64", "tensorShape": {"dim": [{"size": "4"}]}}}}}, {"name": "13510", "op": "Const", "attr": {"dtype": {"type": "DT_INT64"}, "value": {"tensor": {"dtype": "DT_INT64", "tensorShape": {"dim": [{"size": "4"}]}}}}}, {"name": "PartitionedCall/model_8/tf.strided_slice_1/ones_like", "op": "Const", "attr": {"dtype": {"type": "DT_INT64"}, "value": {"tensor": {"dtype": "DT_INT64", "tensorShape": {"dim": [{"size": "4"}]}}}}}, {"name": "13512", "op": "Const", "attr": {"dtype": {"type": "DT_FLOAT"}, "value": {"tensor": {"dtype": "DT_FLOAT", "tensorShape": {"dim": [{"size": "3"}, {"size": "3"}, {"size": "16"}, {"size": "16"}]}}}}}, {"name": "13514", "op": "Const", "attr": {"value": {"tensor": {"dtype": "DT_FLOAT", "tensorShape": {"dim": [{"size": "16"}]}}}, "dtype": {"type": "DT_FLOAT"}}}, {"name": "13516", "op": "Const", "attr": {"value": {"tensor": {"dtype": "DT_FLOAT", "tensorShape": {"dim": [{"size": "3"}, {"size": "3"}, {"size": "16"}, {"size": "16"}]}}}, "dtype": {"type": "DT_FLOAT"}}}, {"name": "13518", "op": "Const", "attr": {"value": {"tensor": {"dtype": "DT_FLOAT", "tensorShape": {"dim": [{"size": "16"}]}}}, "dtype": {"type": "DT_FLOAT"}}}, {"name": "PartitionedCall/model_8/tf.concat/concat/axis", "op": "Const", "attr": {"value": {"tensor": {"dtype": "DT_INT32", "tensorShape": {}}}, "dtype": {"type": "DT_INT32"}}}, {"name": "13524", "op": "Const", "attr": {"dtype": {"type": "DT_FLOAT"}, "value": {"tensor": {"dtype": "DT_FLOAT", "tensorShape": {"dim": [{"size": "1"}, {"size": "1"}, {"size": "48"}, {"size": "32"}]}}}}}, {"name": "13526", "op": "Const", "attr": {"dtype": {"type": "DT_FLOAT"}, "value": {"tensor": {"dtype": "DT_FLOAT", "tensorShape": {"dim": [{"size": "32"}]}}}}}, {"name": "13528", "op": "Const", "attr": {"dtype": {"type": "DT_INT32"}, "value": {"tensor": {"dtype": "DT_INT32", "tensorShape": {"dim": [{"size": "4"}, {"size": "2"}]}}}}}, {"name": "13530", "op": "Const", "attr": {"dtype": {"type": "DT_FLOAT"}, "value": {"tensor": {"dtype": "DT_FLOAT", "tensorShape": {"dim": [{"size": "3"}, {"size": "3"}, {"size": "32"}, {"size": "64"}]}}}}}, {"name": "13532", "op": "Const", "attr": {"value": {"tensor": {"dtype": "DT_FLOAT", "tensorShape": {"dim": [{"size": "64"}]}}}, "dtype": {"type": "DT_FLOAT"}}}, {"name": "13534", "op": "Const", "attr": {"value": {"tensor": {"dtype": "DT_FLOAT", "tensorShape": {"dim": [{"size": "1"}, {"size": "1"}, {"size": "64"}, {"size": "64"}]}}}, "dtype": {"type": "DT_FLOAT"}}}, {"name": "13536", "op": "Const", "attr": {"value": {"tensor": {"dtype": "DT_FLOAT", "tensorShape": {"dim": [{"size": "64"}]}}}, "dtype": {"type": "DT_FLOAT"}}}, {"name": "13538", "op": "Const", "attr": {"value": {"tensor": {"dtype": "DT_INT64", "tensorShape": {"dim": [{"size": "4"}]}}}, "dtype": {"type": "DT_INT64"}}}, {"name": "13540", "op": "Const", "attr": {"value": {"tensor": {"dtype": "DT_INT64", "tensorShape": {"dim": [{"size": "4"}]}}}, "dtype": {"type": "DT_INT64"}}}, {"name": "PartitionedCall/model_8/tf.strided_slice_3/ones_like", "op": "Const", "attr": {"dtype": {"type": "DT_INT64"}, "value": {"tensor": {"dtype": "DT_INT64", "tensorShape": {"dim": [{"size": "4"}]}}}}}, {"name": "13542", "op": "Const", "attr": {"value": {"tensor": {"dtype": "DT_FLOAT", "tensorShape": {"dim": [{"size": "3"}, {"size": "3"}, {"size": "32"}, {"size": "32"}]}}}, "dtype": {"type": "DT_FLOAT"}}}, {"name": "13544", "op": "Const", "attr": {"dtype": {"type": "DT_FLOAT"}, "value": {"tensor": {"dtype": "DT_FLOAT", "tensorShape": {"dim": [{"size": "32"}]}}}}}, {"name": "13546", "op": "Const", "attr": {"dtype": {"type": "DT_FLOAT"}, "value": {"tensor": {"dtype": "DT_FLOAT", "tensorShape": {"dim": [{"size": "3"}, {"size": "3"}, {"size": "32"}, {"size": "32"}]}}}}}, {"name": "13548", "op": "Const", "attr": {"dtype": {"type": "DT_FLOAT"}, "value": {"tensor": {"dtype": "DT_FLOAT", "tensorShape": {"dim": [{"size": "32"}]}}}}}, {"name": "13550", "op": "Const", "attr": {"dtype": {"type": "DT_FLOAT"}, "value": {"tensor": {"dtype": "DT_FLOAT", "tensorShape": {"dim": [{"size": "3"}, {"size": "3"}, {"size": "32"}, {"size": "32"}]}}}}}, {"name": "13552", "op": "Const", "attr": {"dtype": {"type": "DT_FLOAT"}, "value": {"tensor": {"dtype": "DT_FLOAT", "tensorShape": {"dim": [{"size": "32"}]}}}}}, {"name": "13554", "op": "Const", "attr": {"dtype": {"type": "DT_FLOAT"}, "value": {"tensor": {"dtype": "DT_FLOAT", "tensorShape": {"dim": [{"size": "3"}, {"size": "3"}, {"size": "32"}, {"size": "32"}]}}}}}, {"name": "13556", "op": "Const", "attr": {"dtype": {"type": "DT_FLOAT"}, "value": {"tensor": {"dtype": "DT_FLOAT", "tensorShape": {"dim": [{"size": "32"}]}}}}}, {"name": "PartitionedCall/model_8/tf.concat_1/concat/axis", "op": "Const", "attr": {"dtype": {"type": "DT_INT32"}, "value": {"tensor": {"dtype": "DT_INT32", "tensorShape": {}}}}}, {"name": "13562", "op": "Const", "attr": {"dtype": {"type": "DT_FLOAT"}, "value": {"tensor": {"dtype": "DT_FLOAT", "tensorShape": {"dim": [{"size": "1"}, {"size": "1"}, {"size": "128"}, {"size": "64"}]}}}}}, {"name": "13564", "op": "Const", "attr": {"value": {"tensor": {"dtype": "DT_FLOAT", "tensorShape": {"dim": [{"size": "64"}]}}}, "dtype": {"type": "DT_FLOAT"}}}, {"name": "13566", "op": "Const", "attr": {"dtype": {"type": "DT_INT32"}, "value": {"tensor": {"dtype": "DT_INT32", "tensorShape": {"dim": [{"size": "4"}, {"size": "2"}]}}}}}, {"name": "13568", "op": "Const", "attr": {"value": {"tensor": {"dtype": "DT_FLOAT", "tensorShape": {"dim": [{"size": "3"}, {"size": "3"}, {"size": "64"}, {"size": "128"}]}}}, "dtype": {"type": "DT_FLOAT"}}}, {"name": "13570", "op": "Const", "attr": {"dtype": {"type": "DT_FLOAT"}, "value": {"tensor": {"dtype": "DT_FLOAT", "tensorShape": {"dim": [{"size": "128"}]}}}}}, {"name": "13572", "op": "Const", "attr": {"dtype": {"type": "DT_FLOAT"}, "value": {"tensor": {"dtype": "DT_FLOAT", "tensorShape": {"dim": [{"size": "1"}, {"size": "1"}, {"size": "128"}, {"size": "128"}]}}}}}, {"name": "13574", "op": "Const", "attr": {"dtype": {"type": "DT_FLOAT"}, "value": {"tensor": {"dtype": "DT_FLOAT", "tensorShape": {"dim": [{"size": "128"}]}}}}}, {"name": "13576", "op": "Const", "attr": {"dtype": {"type": "DT_INT64"}, "value": {"tensor": {"dtype": "DT_INT64", "tensorShape": {"dim": [{"size": "4"}]}}}}}, {"name": "13578", "op": "Const", "attr": {"dtype": {"type": "DT_INT64"}, "value": {"tensor": {"dtype": "DT_INT64", "tensorShape": {"dim": [{"size": "4"}]}}}}}, {"name": "PartitionedCall/model_8/tf.strided_slice_5/ones_like", "op": "Const", "attr": {"dtype": {"type": "DT_INT64"}, "value": {"tensor": {"dtype": "DT_INT64", "tensorShape": {"dim": [{"size": "4"}]}}}}}, {"name": "13580", "op": "Const", "attr": {"dtype": {"type": "DT_FLOAT"}, "value": {"tensor": {"dtype": "DT_FLOAT", "tensorShape": {"dim": [{"size": "3"}, {"size": "3"}, {"size": "64"}, {"size": "64"}]}}}}}, {"name": "13582", "op": "Const", "attr": {"dtype": {"type": "DT_FLOAT"}, "value": {"tensor": {"dtype": "DT_FLOAT", "tensorShape": {"dim": [{"size": "64"}]}}}}}, {"name": "13584", "op": "Const", "attr": {"dtype": {"type": "DT_FLOAT"}, "value": {"tensor": {"dtype": "DT_FLOAT", "tensorShape": {"dim": [{"size": "3"}, {"size": "3"}, {"size": "64"}, {"size": "64"}]}}}}}, {"name": "13586", "op": "Const", "attr": {"dtype": {"type": "DT_FLOAT"}, "value": {"tensor": {"dtype": "DT_FLOAT", "tensorShape": {"dim": [{"size": "64"}]}}}}}, {"name": "13588", "op": "Const", "attr": {"dtype": {"type": "DT_FLOAT"}, "value": {"tensor": {"dtype": "DT_FLOAT", "tensorShape": {"dim": [{"size": "3"}, {"size": "3"}, {"size": "64"}, {"size": "64"}]}}}}}, {"name": "13590", "op": "Const", "attr": {"dtype": {"type": "DT_FLOAT"}, "value": {"tensor": {"dtype": "DT_FLOAT", "tensorShape": {"dim": [{"size": "64"}]}}}}}, {"name": "13592", "op": "Const", "attr": {"value": {"tensor": {"dtype": "DT_FLOAT", "tensorShape": {"dim": [{"size": "3"}, {"size": "3"}, {"size": "64"}, {"size": "64"}]}}}, "dtype": {"type": "DT_FLOAT"}}}, {"name": "13594", "op": "Const", "attr": {"dtype": {"type": "DT_FLOAT"}, "value": {"tensor": {"dtype": "DT_FLOAT", "tensorShape": {"dim": [{"size": "64"}]}}}}}, {"name": "PartitionedCall/model_8/tf.concat_2/concat/axis", "op": "Const", "attr": {"dtype": {"type": "DT_INT32"}, "value": {"tensor": {"dtype": "DT_INT32", "tensorShape": {}}}}}, {"name": "13600", "op": "Const", "attr": {"dtype": {"type": "DT_FLOAT"}, "value": {"tensor": {"dtype": "DT_FLOAT", "tensorShape": {"dim": [{"size": "1"}, {"size": "1"}, {"size": "256"}, {"size": "128"}]}}}}}, {"name": "13602", "op": "Const", "attr": {"dtype": {"type": "DT_FLOAT"}, "value": {"tensor": {"dtype": "DT_FLOAT", "tensorShape": {"dim": [{"size": "128"}]}}}}}, {"name": "13604", "op": "Const", "attr": {"dtype": {"type": "DT_INT32"}, "value": {"tensor": {"dtype": "DT_INT32", "tensorShape": {"dim": [{"size": "4"}, {"size": "2"}]}}}}}, {"name": "13606", "op": "Const", "attr": {"dtype": {"type": "DT_FLOAT"}, "value": {"tensor": {"dtype": "DT_FLOAT", "tensorShape": {"dim": [{"size": "3"}, {"size": "3"}, {"size": "128"}, {"size": "256"}]}}}}}, {"name": "13608", "op": "Const", "attr": {"value": {"tensor": {"dtype": "DT_FLOAT", "tensorShape": {"dim": [{"size": "256"}]}}}, "dtype": {"type": "DT_FLOAT"}}}, {"name": "13610", "op": "Const", "attr": {"dtype": {"type": "DT_FLOAT"}, "value": {"tensor": {"dtype": "DT_FLOAT", "tensorShape": {"dim": [{"size": "1"}, {"size": "1"}, {"size": "256"}, {"size": "256"}]}}}}}, {"name": "13612", "op": "Const", "attr": {"dtype": {"type": "DT_FLOAT"}, "value": {"tensor": {"dtype": "DT_FLOAT", "tensorShape": {"dim": [{"size": "256"}]}}}}}, {"name": "13614", "op": "Const", "attr": {"dtype": {"type": "DT_INT64"}, "value": {"tensor": {"dtype": "DT_INT64", "tensorShape": {"dim": [{"size": "4"}]}}}}}, {"name": "13616", "op": "Const", "attr": {"value": {"tensor": {"dtype": "DT_INT64", "tensorShape": {"dim": [{"size": "4"}]}}}, "dtype": {"type": "DT_INT64"}}}, {"name": "PartitionedCall/model_8/tf.strided_slice_7/ones_like", "op": "Const", "attr": {"dtype": {"type": "DT_INT64"}, "value": {"tensor": {"dtype": "DT_INT64", "tensorShape": {"dim": [{"size": "4"}]}}}}}, {"name": "13618", "op": "Const", "attr": {"dtype": {"type": "DT_FLOAT"}, "value": {"tensor": {"dtype": "DT_FLOAT", "tensorShape": {"dim": [{"size": "3"}, {"size": "3"}, {"size": "128"}, {"size": "128"}]}}}}}, {"name": "13620", "op": "Const", "attr": {"value": {"tensor": {"dtype": "DT_FLOAT", "tensorShape": {"dim": [{"size": "128"}]}}}, "dtype": {"type": "DT_FLOAT"}}}, {"name": "13622", "op": "Const", "attr": {"dtype": {"type": "DT_FLOAT"}, "value": {"tensor": {"dtype": "DT_FLOAT", "tensorShape": {"dim": [{"size": "3"}, {"size": "3"}, {"size": "128"}, {"size": "128"}]}}}}}, {"name": "13624", "op": "Const", "attr": {"value": {"tensor": {"dtype": "DT_FLOAT", "tensorShape": {"dim": [{"size": "128"}]}}}, "dtype": {"type": "DT_FLOAT"}}}, {"name": "PartitionedCall/model_8/tf.concat_3/concat/axis", "op": "Const", "attr": {"dtype": {"type": "DT_INT32"}, "value": {"tensor": {"dtype": "DT_INT32", "tensorShape": {}}}}}, {"name": "13630", "op": "Const", "attr": {"dtype": {"type": "DT_FLOAT"}, "value": {"tensor": {"dtype": "DT_FLOAT", "tensorShape": {"dim": [{"size": "1"}, {"size": "1"}, {"size": "384"}, {"size": "256"}]}}}}}, {"name": "13632", "op": "Const", "attr": {"dtype": {"type": "DT_FLOAT"}, "value": {"tensor": {"dtype": "DT_FLOAT", "tensorShape": {"dim": [{"size": "256"}]}}}}}, {"name": "13634", "op": "Const", "attr": {"dtype": {"type": "DT_FLOAT"}, "value": {"tensor": {"dtype": "DT_FLOAT", "tensorShape": {"dim": [{"size": "1"}, {"size": "1"}, {"size": "256"}, {"size": "128"}]}}}}}, {"name": "13636", "op": "Const", "attr": {"dtype": {"type": "DT_FLOAT"}, "value": {"tensor": {"dtype": "DT_FLOAT", "tensorShape": {"dim": [{"size": "128"}]}}}}}, {"name": "PartitionedCall/model_8/tf.concat_4/concat/axis", "op": "Const", "attr": {"dtype": {"type": "DT_INT32"}, "value": {"tensor": {"dtype": "DT_INT32", "tensorShape": {}}}}}, {"name": "13638", "op": "Const", "attr": {"dtype": {"type": "DT_FLOAT"}, "value": {"tensor": {"dtype": "DT_FLOAT", "tensorShape": {"dim": [{"size": "1"}, {"size": "1"}, {"size": "512"}, {"size": "256"}]}}}}}, {"name": "13640", "op": "Const", "attr": {"dtype": {"type": "DT_FLOAT"}, "value": {"tensor": {"dtype": "DT_FLOAT", "tensorShape": {"dim": [{"size": "256"}]}}}}}, {"name": "PartitionedCall/model_8/tf.concat_12/concat/axis", "op": "Const", "attr": {"dtype": {"type": "DT_INT32"}, "value": {"tensor": {"dtype": "DT_INT32", "tensorShape": {}}}}}, {"name": "13726", "op": "Const", "attr": {"dtype": {"type": "DT_FLOAT"}, "value": {"tensor": {"dtype": "DT_FLOAT", "tensorShape": {"dim": [{"size": "1"}, {"size": "1"}, {"size": "384"}, {"size": "256"}]}}}}}, {"name": "13728", "op": "Const", "attr": {"dtype": {"type": "DT_FLOAT"}, "value": {"tensor": {"dtype": "DT_FLOAT", "tensorShape": {"dim": [{"size": "256"}]}}}}}, {"name": "13730", "op": "Const", "attr": {"dtype": {"type": "DT_INT64"}, "value": {"tensor": {"dtype": "DT_INT64", "tensorShape": {"dim": [{"size": "4"}]}}}}}, {"name": "13732", "op": "Const", "attr": {"dtype": {"type": "DT_INT64"}, "value": {"tensor": {"dtype": "DT_INT64", "tensorShape": {"dim": [{"size": "4"}]}}}}}, {"name": "PartitionedCall/model_8/tf.strided_slice_15/ones_like", "op": "Const", "attr": {"dtype": {"type": "DT_INT64"}, "value": {"tensor": {"dtype": "DT_INT64", "tensorShape": {"dim": [{"size": "4"}]}}}}}, {"name": "13734", "op": "Const", "attr": {"value": {"tensor": {"dtype": "DT_FLOAT", "tensorShape": {"dim": [{"size": "3"}, {"size": "3"}, {"size": "128"}, {"size": "128"}]}}}, "dtype": {"type": "DT_FLOAT"}}}, {"name": "13736", "op": "Const", "attr": {"dtype": {"type": "DT_FLOAT"}, "value": {"tensor": {"dtype": "DT_FLOAT", "tensorShape": {"dim": [{"size": "128"}]}}}}}, {"name": "13738", "op": "Const", "attr": {"dtype": {"type": "DT_FLOAT"}, "value": {"tensor": {"dtype": "DT_FLOAT", "tensorShape": {"dim": [{"size": "3"}, {"size": "3"}, {"size": "128"}, {"size": "128"}]}}}}}, {"name": "13740", "op": "Const", "attr": {"value": {"tensor": {"dtype": "DT_FLOAT", "tensorShape": {"dim": [{"size": "128"}]}}}, "dtype": {"type": "DT_FLOAT"}}}, {"name": "PartitionedCall/model_8/tf.concat_14/concat/axis", "op": "Const", "attr": {"value": {"tensor": {"dtype": "DT_INT32", "tensorShape": {}}}, "dtype": {"type": "DT_INT32"}}}, {"name": "13746", "op": "Const", "attr": {"dtype": {"type": "DT_FLOAT"}, "value": {"tensor": {"dtype": "DT_FLOAT", "tensorShape": {"dim": [{"size": "1"}, {"size": "1"}, {"size": "384"}, {"size": "256"}]}}}}}, {"name": "13750", "op": "Const", "attr": {"dtype": {"type": "DT_FLOAT"}, "value": {"tensor": {"dtype": "DT_FLOAT", "tensorShape": {"dim": [{"size": "256"}]}}}}}, {"name": "13754", "op": "Const", "attr": {"dtype": {"type": "DT_FLOAT"}, "value": {"tensor": {"dtype": "DT_FLOAT", "tensorShape": {"dim": [{"size": "3"}, {"size": "3"}, {"size": "256"}, {"size": "80"}]}}}}}, {"name": "13764", "op": "Const", "attr": {"dtype": {"type": "DT_FLOAT"}, "value": {"tensor": {"dtype": "DT_FLOAT", "tensorShape": {"dim": [{"size": "80"}]}}}}}, {"name": "13778", "op": "Const", "attr": {"value": {"tensor": {"dtype": "DT_FLOAT", "tensorShape": {"dim": [{"size": "3"}, {"size": "3"}, {"size": "80"}, {"size": "80"}]}}}, "dtype": {"type": "DT_FLOAT"}}}, {"name": "13788", "op": "Const", "attr": {"dtype": {"type": "DT_FLOAT"}, "value": {"tensor": {"dtype": "DT_FLOAT", "tensorShape": {"dim": [{"size": "80"}]}}}}}, {"name": "13798", "op": "Const", "attr": {"dtype": {"type": "DT_FLOAT"}, "value": {"tensor": {"dtype": "DT_FLOAT", "tensorShape": {"dim": [{"size": "1"}, {"size": "1"}, {"size": "80"}, {"size": "80"}]}}}}}, {"name": "13812", "op": "Const", "attr": {"dtype": {"type": "DT_FLOAT"}, "value": {"tensor": {"dtype": "DT_FLOAT", "tensorShape": {"dim": [{"size": "80"}]}}}}}, {"name": "PartitionedCall/model_8/tf.concat_15/concat/axis", "op": "Const", "attr": {"dtype": {"type": "DT_INT32"}, "value": {"tensor": {"dtype": "DT_INT32", "tensorShape": {}}}}}, {"name": "PartitionedCall/model_8/tf.compat.v1.transpose_8/transpose/perm", "op": "Const", "attr": {"dtype": {"type": "DT_INT32"}, "value": {"tensor": {"dtype": "DT_INT32", "tensorShape": {"dim": [{"size": "4"}]}}}}}, {"name": "PartitionedCall/model_8/tf.reshape_2/Reshape/shape", "op": "Const", "attr": {"value": {"tensor": {"dtype": "DT_INT32", "tensorShape": {"dim": [{"size": "3"}]}}}, "dtype": {"type": "DT_INT32"}}}, {"name": "PartitionedCall/model_8/tf.concat_16/concat/axis", "op": "Const", "attr": {"dtype": {"type": "DT_INT32"}, "value": {"tensor": {"dtype": "DT_INT32", "tensorShape": {}}}}}, {"name": "13842", "op": "Const", "attr": {"dtype": {"type": "DT_INT64"}, "value": {"tensor": {"dtype": "DT_INT64", "tensorShape": {"dim": [{"size": "3"}]}}}}}, {"name": "13844", "op": "Const", "attr": {"value": {"tensor": {"dtype": "DT_INT64", "tensorShape": {"dim": [{"size": "3"}]}}}, "dtype": {"type": "DT_INT64"}}}, {"name": "PartitionedCall/model_8/tf.strided_slice_17/StridedSlice/strides", "op": "Const", "attr": {"dtype": {"type": "DT_INT64"}, "value": {"tensor": {"dtype": "DT_INT64", "tensorShape": {"dim": [{"size": "3"}]}}}}}, {"name": "PartitionedCall/model_8/output0/concat/axis", "op": "Const", "attr": {"dtype": {"type": "DT_INT32"}, "value": {"tensor": {"dtype": "DT_INT32", "tensorShape": {}}}}}, {"name": "x", "op": "Placeholder", "attr": {"shape": {"shape": {"dim": [{"size": "1"}, {"size": "640"}, {"size": "640"}, {"size": "3"}]}}, "dtype": {"type": "DT_FLOAT"}}}, {"name": "PartitionedCall/model_8/tf.compat.v1.pad/Pad", "op": "Pad", "input": ["x", "13492"], "attr": {"T": {"type": "DT_FLOAT"}, "Tpaddings": {"type": "DT_INT32"}}}, {"name": "PartitionedCall/model_8/tf.nn.convolution/convolution", "op": "Conv2D", "input": ["PartitionedCall/model_8/tf.compat.v1.pad/Pad", "13494"], "device": "/device:CPU:0", "attr": {"strides": {"list": {"i": ["1", "2", "2", "1"]}}, "data_format": {"s": "TkhXQw=="}, "explicit_paddings": {"list": {}}, "T": {"type": "DT_FLOAT"}, "padding": {"s": "VkFMSUQ="}, "dilations": {"list": {"i": ["1", "1", "1", "1"]}}, "use_cudnn_on_gpu": {"b": true}}}, {"name": "PartitionedCall/model_8/tf.math.add/Add", "op": "AddV2", "input": ["PartitionedCall/model_8/tf.nn.convolution/convolution", "13496"], "attr": {"T": {"type": "DT_FLOAT"}}}, {"name": "PartitionedCall/model_8/tf.math.sigmoid/Sigmoid", "op": "Sigmoid", "input": ["PartitionedCall/model_8/tf.math.add/Add"], "attr": {"T": {"type": "DT_FLOAT"}}}, {"name": "PartitionedCall/model_8/tf.math.multiply_3/Mul", "op": "Mul", "input": ["PartitionedCall/model_8/tf.math.add/Add", "PartitionedCall/model_8/tf.math.sigmoid/Sigmoid"], "attr": {"T": {"type": "DT_FLOAT"}}}, {"name": "PartitionedCall/model_8/tf.compat.v1.pad_1/Pad", "op": "Pad", "input": ["PartitionedCall/model_8/tf.math.multiply_3/Mul", "13498"], "attr": {"Tpaddings": {"type": "DT_INT32"}, "T": {"type": "DT_FLOAT"}}}, {"name": "PartitionedCall/model_8/tf.nn.convolution_1/convolution", "op": "Conv2D", "input": ["PartitionedCall/model_8/tf.compat.v1.pad_1/Pad", "13500"], "device": "/device:CPU:0", "attr": {"strides": {"list": {"i": ["1", "2", "2", "1"]}}, "data_format": {"s": "TkhXQw=="}, "T": {"type": "DT_FLOAT"}, "padding": {"s": "VkFMSUQ="}, "dilations": {"list": {"i": ["1", "1", "1", "1"]}}, "use_cudnn_on_gpu": {"b": true}, "explicit_paddings": {"list": {}}}}, {"name": "PartitionedCall/model_8/tf.math.add_1/Add", "op": "AddV2", "input": ["PartitionedCall/model_8/tf.nn.convolution_1/convolution", "13502"], "attr": {"T": {"type": "DT_FLOAT"}}}, {"name": "PartitionedCall/model_8/tf.math.sigmoid_1/Sigmoid", "op": "Sigmoid", "input": ["PartitionedCall/model_8/tf.math.add_1/Add"], "attr": {"T": {"type": "DT_FLOAT"}}}, {"name": "PartitionedCall/model_8/tf.math.multiply_7/Mul", "op": "Mul", "input": ["PartitionedCall/model_8/tf.math.add_1/Add", "PartitionedCall/model_8/tf.math.sigmoid_1/Sigmoid"], "attr": {"T": {"type": "DT_FLOAT"}}}, {"name": "PartitionedCall/model_8/tf.nn.convolution_2/convolution", "op": "Conv2D", "input": ["PartitionedCall/model_8/tf.math.multiply_7/Mul", "13504"], "device": "/device:CPU:0", "attr": {"padding": {"s": "U0FNRQ=="}, "dilations": {"list": {"i": ["1", "1", "1", "1"]}}, "use_cudnn_on_gpu": {"b": true}, "data_format": {"s": "TkhXQw=="}, "explicit_paddings": {"list": {}}, "T": {"type": "DT_FLOAT"}, "strides": {"list": {"i": ["1", "1", "1", "1"]}}}}, {"name": "PartitionedCall/model_8/tf.math.add_2/Add", "op": "AddV2", "input": ["PartitionedCall/model_8/tf.nn.convolution_2/convolution", "13506"], "attr": {"T": {"type": "DT_FLOAT"}}}, {"name": "PartitionedCall/model_8/tf.math.sigmoid_2/Sigmoid", "op": "Sigmoid", "input": ["PartitionedCall/model_8/tf.math.add_2/Add"], "attr": {"T": {"type": "DT_FLOAT"}}}, {"name": "PartitionedCall/model_8/tf.math.multiply_11/Mul", "op": "Mul", "input": ["PartitionedCall/model_8/tf.math.add_2/Add", "PartitionedCall/model_8/tf.math.sigmoid_2/Sigmoid"], "attr": {"T": {"type": "DT_FLOAT"}}}, {"name": "PartitionedCall/model_8/tf.strided_slice/StridedSlice", "op": "StridedSlice", "input": ["PartitionedCall/model_8/tf.math.multiply_11/Mul", "13520", "13522", "PartitionedCall/model_8/tf.strided_slice/ones_like"], "attr": {"new_axis_mask": {"i": "0"}, "begin_mask": {"i": "15"}, "ellipsis_mask": {"i": "0"}, "shrink_axis_mask": {"i": "0"}, "end_mask": {"i": "7"}, "Index": {"type": "DT_INT64"}, "T": {"type": "DT_FLOAT"}}}, {"name": "PartitionedCall/model_8/tf.strided_slice_1/StridedSlice", "op": "StridedSlice", "input": ["PartitionedCall/model_8/tf.math.multiply_11/Mul", "13508", "13510", "PartitionedCall/model_8/tf.strided_slice_1/ones_like"], "attr": {"shrink_axis_mask": {"i": "0"}, "end_mask": {"i": "7"}, "Index": {"type": "DT_INT64"}, "T": {"type": "DT_FLOAT"}, "begin_mask": {"i": "7"}, "ellipsis_mask": {"i": "0"}, "new_axis_mask": {"i": "0"}}}, {"name": "PartitionedCall/model_8/tf.nn.convolution_3/convolution", "op": "Conv2D", "input": ["PartitionedCall/model_8/tf.strided_slice_1/StridedSlice", "13512"], "device": "/device:CPU:0", "attr": {"data_format": {"s": "TkhXQw=="}, "dilations": {"list": {"i": ["1", "1", "1", "1"]}}, "explicit_paddings": {"list": {}}, "strides": {"list": {"i": ["1", "1", "1", "1"]}}, "use_cudnn_on_gpu": {"b": true}, "T": {"type": "DT_FLOAT"}, "padding": {"s": "U0FNRQ=="}}}, {"name": "PartitionedCall/model_8/tf.math.add_3/Add", "op": "AddV2", "input": ["PartitionedCall/model_8/tf.nn.convolution_3/convolution", "13514"], "attr": {"T": {"type": "DT_FLOAT"}}}, {"name": "PartitionedCall/model_8/tf.math.sigmoid_3/Sigmoid", "op": "Sigmoid", "input": ["PartitionedCall/model_8/tf.math.add_3/Add"], "attr": {"T": {"type": "DT_FLOAT"}}}, {"name": "PartitionedCall/model_8/tf.math.multiply_15/Mul", "op": "Mul", "input": ["PartitionedCall/model_8/tf.math.add_3/Add", "PartitionedCall/model_8/tf.math.sigmoid_3/Sigmoid"], "attr": {"T": {"type": "DT_FLOAT"}}}, {"name": "PartitionedCall/model_8/tf.nn.convolution_4/convolution", "op": "Conv2D", "input": ["PartitionedCall/model_8/tf.math.multiply_15/Mul", "13516"], "device": "/device:CPU:0", "attr": {"data_format": {"s": "TkhXQw=="}, "strides": {"list": {"i": ["1", "1", "1", "1"]}}, "dilations": {"list": {"i": ["1", "1", "1", "1"]}}, "T": {"type": "DT_FLOAT"}, "use_cudnn_on_gpu": {"b": true}, "padding": {"s": "U0FNRQ=="}, "explicit_paddings": {"list": {}}}}, {"name": "PartitionedCall/model_8/tf.math.add_4/Add", "op": "AddV2", "input": ["PartitionedCall/model_8/tf.nn.convolution_4/convolution", "13518"], "attr": {"T": {"type": "DT_FLOAT"}}}, {"name": "PartitionedCall/model_8/tf.math.sigmoid_4/Sigmoid", "op": "Sigmoid", "input": ["PartitionedCall/model_8/tf.math.add_4/Add"], "attr": {"T": {"type": "DT_FLOAT"}}}, {"name": "PartitionedCall/model_8/tf.math.multiply_19/Mul", "op": "Mul", "input": ["PartitionedCall/model_8/tf.math.add_4/Add", "PartitionedCall/model_8/tf.math.sigmoid_4/Sigmoid"], "attr": {"T": {"type": "DT_FLOAT"}}}, {"name": "PartitionedCall/model_8/tf.math.add_6/Add", "op": "AddV2", "input": ["PartitionedCall/model_8/tf.strided_slice_1/StridedSlice", "PartitionedCall/model_8/tf.math.multiply_19/Mul"], "attr": {"T": {"type": "DT_FLOAT"}}}, {"name": "PartitionedCall/model_8/tf.concat/concat", "op": "ConcatV2", "input": ["PartitionedCall/model_8/tf.strided_slice/StridedSlice", "PartitionedCall/model_8/tf.strided_slice_1/StridedSlice", "PartitionedCall/model_8/tf.math.add_6/Add", "PartitionedCall/model_8/tf.concat/concat/axis"], "attr": {"N": {"i": "3"}, "T": {"type": "DT_FLOAT"}, "Tidx": {"type": "DT_INT32"}}}, {"name": "PartitionedCall/model_8/tf.nn.convolution_5/convolution", "op": "Conv2D", "input": ["PartitionedCall/model_8/tf.concat/concat", "13524"], "device": "/device:CPU:0", "attr": {"padding": {"s": "U0FNRQ=="}, "dilations": {"list": {"i": ["1", "1", "1", "1"]}}, "use_cudnn_on_gpu": {"b": true}, "strides": {"list": {"i": ["1", "1", "1", "1"]}}, "data_format": {"s": "TkhXQw=="}, "explicit_paddings": {"list": {}}, "T": {"type": "DT_FLOAT"}}}, {"name": "PartitionedCall/model_8/tf.math.add_7/Add", "op": "AddV2", "input": ["PartitionedCall/model_8/tf.nn.convolution_5/convolution", "13526"], "attr": {"T": {"type": "DT_FLOAT"}}}, {"name": "PartitionedCall/model_8/tf.math.sigmoid_5/Sigmoid", "op": "Sigmoid", "input": ["PartitionedCall/model_8/tf.math.add_7/Add"], "attr": {"T": {"type": "DT_FLOAT"}}}, {"name": "PartitionedCall/model_8/tf.math.multiply_25/Mul", "op": "Mul", "input": ["PartitionedCall/model_8/tf.math.add_7/Add", "PartitionedCall/model_8/tf.math.sigmoid_5/Sigmoid"], "attr": {"T": {"type": "DT_FLOAT"}}}, {"name": "PartitionedCall/model_8/tf.compat.v1.pad_2/Pad", "op": "Pad", "input": ["PartitionedCall/model_8/tf.math.multiply_25/Mul", "13528"], "attr": {"T": {"type": "DT_FLOAT"}, "Tpaddings": {"type": "DT_INT32"}}}, {"name": "PartitionedCall/model_8/tf.nn.convolution_6/convolution", "op": "Conv2D", "input": ["PartitionedCall/model_8/tf.compat.v1.pad_2/Pad", "13530"], "device": "/device:CPU:0", "attr": {"T": {"type": "DT_FLOAT"}, "strides": {"list": {"i": ["1", "2", "2", "1"]}}, "padding": {"s": "VkFMSUQ="}, "explicit_paddings": {"list": {}}, "use_cudnn_on_gpu": {"b": true}, "data_format": {"s": "TkhXQw=="}, "dilations": {"list": {"i": ["1", "1", "1", "1"]}}}}, {"name": "PartitionedCall/model_8/tf.math.add_8/Add", "op": "AddV2", "input": ["PartitionedCall/model_8/tf.nn.convolution_6/convolution", "13532"], "attr": {"T": {"type": "DT_FLOAT"}}}, {"name": "PartitionedCall/model_8/tf.math.sigmoid_6/Sigmoid", "op": "Sigmoid", "input": ["PartitionedCall/model_8/tf.math.add_8/Add"], "attr": {"T": {"type": "DT_FLOAT"}}}, {"name": "PartitionedCall/model_8/tf.math.multiply_29/Mul", "op": "Mul", "input": ["PartitionedCall/model_8/tf.math.add_8/Add", "PartitionedCall/model_8/tf.math.sigmoid_6/Sigmoid"], "attr": {"T": {"type": "DT_FLOAT"}}}, {"name": "PartitionedCall/model_8/tf.nn.convolution_7/convolution", "op": "Conv2D", "input": ["PartitionedCall/model_8/tf.math.multiply_29/Mul", "13534"], "device": "/device:CPU:0", "attr": {"explicit_paddings": {"list": {}}, "padding": {"s": "U0FNRQ=="}, "T": {"type": "DT_FLOAT"}, "use_cudnn_on_gpu": {"b": true}, "data_format": {"s": "TkhXQw=="}, "dilations": {"list": {"i": ["1", "1", "1", "1"]}}, "strides": {"list": {"i": ["1", "1", "1", "1"]}}}}, {"name": "PartitionedCall/model_8/tf.math.add_9/Add", "op": "AddV2", "input": ["PartitionedCall/model_8/tf.nn.convolution_7/convolution", "13536"], "attr": {"T": {"type": "DT_FLOAT"}}}, {"name": "PartitionedCall/model_8/tf.math.sigmoid_7/Sigmoid", "op": "Sigmoid", "input": ["PartitionedCall/model_8/tf.math.add_9/Add"], "attr": {"T": {"type": "DT_FLOAT"}}}, {"name": "PartitionedCall/model_8/tf.math.multiply_33/Mul", "op": "Mul", "input": ["PartitionedCall/model_8/tf.math.add_9/Add", "PartitionedCall/model_8/tf.math.sigmoid_7/Sigmoid"], "attr": {"T": {"type": "DT_FLOAT"}}}, {"name": "PartitionedCall/model_8/tf.strided_slice_2/StridedSlice", "op": "StridedSlice", "input": ["PartitionedCall/model_8/tf.math.multiply_33/Mul", "13558", "13560", "PartitionedCall/model_8/tf.strided_slice_2/ones_like"], "attr": {"new_axis_mask": {"i": "0"}, "T": {"type": "DT_FLOAT"}, "shrink_axis_mask": {"i": "0"}, "ellipsis_mask": {"i": "0"}, "end_mask": {"i": "7"}, "Index": {"type": "DT_INT64"}, "begin_mask": {"i": "15"}}}, {"name": "PartitionedCall/model_8/tf.strided_slice_3/StridedSlice", "op": "StridedSlice", "input": ["PartitionedCall/model_8/tf.math.multiply_33/Mul", "13538", "13540", "PartitionedCall/model_8/tf.strided_slice_3/ones_like"], "attr": {"new_axis_mask": {"i": "0"}, "begin_mask": {"i": "7"}, "shrink_axis_mask": {"i": "0"}, "T": {"type": "DT_FLOAT"}, "ellipsis_mask": {"i": "0"}, "end_mask": {"i": "7"}, "Index": {"type": "DT_INT64"}}}, {"name": "PartitionedCall/model_8/tf.nn.convolution_8/convolution", "op": "Conv2D", "input": ["PartitionedCall/model_8/tf.strided_slice_3/StridedSlice", "13542"], "device": "/device:CPU:0", "attr": {"explicit_paddings": {"list": {}}, "data_format": {"s": "TkhXQw=="}, "T": {"type": "DT_FLOAT"}, "padding": {"s": "U0FNRQ=="}, "dilations": {"list": {"i": ["1", "1", "1", "1"]}}, "use_cudnn_on_gpu": {"b": true}, "strides": {"list": {"i": ["1", "1", "1", "1"]}}}}, {"name": "PartitionedCall/model_8/tf.math.add_10/Add", "op": "AddV2", "input": ["PartitionedCall/model_8/tf.nn.convolution_8/convolution", "13544"], "attr": {"T": {"type": "DT_FLOAT"}}}, {"name": "PartitionedCall/model_8/tf.math.sigmoid_8/Sigmoid", "op": "Sigmoid", "input": ["PartitionedCall/model_8/tf.math.add_10/Add"], "attr": {"T": {"type": "DT_FLOAT"}}}, {"name": "PartitionedCall/model_8/tf.math.multiply_37/Mul", "op": "Mul", "input": ["PartitionedCall/model_8/tf.math.add_10/Add", "PartitionedCall/model_8/tf.math.sigmoid_8/Sigmoid"], "attr": {"T": {"type": "DT_FLOAT"}}}, {"name": "PartitionedCall/model_8/tf.nn.convolution_9/convolution", "op": "Conv2D", "input": ["PartitionedCall/model_8/tf.math.multiply_37/Mul", "13546"], "device": "/device:CPU:0", "attr": {"data_format": {"s": "TkhXQw=="}, "T": {"type": "DT_FLOAT"}, "padding": {"s": "U0FNRQ=="}, "dilations": {"list": {"i": ["1", "1", "1", "1"]}}, "explicit_paddings": {"list": {}}, "strides": {"list": {"i": ["1", "1", "1", "1"]}}, "use_cudnn_on_gpu": {"b": true}}}, {"name": "PartitionedCall/model_8/tf.math.add_11/Add", "op": "AddV2", "input": ["PartitionedCall/model_8/tf.nn.convolution_9/convolution", "13548"], "attr": {"T": {"type": "DT_FLOAT"}}}, {"name": "PartitionedCall/model_8/tf.math.sigmoid_9/Sigmoid", "op": "Sigmoid", "input": ["PartitionedCall/model_8/tf.math.add_11/Add"], "attr": {"T": {"type": "DT_FLOAT"}}}, {"name": "PartitionedCall/model_8/tf.math.multiply_41/Mul", "op": "Mul", "input": ["PartitionedCall/model_8/tf.math.add_11/Add", "PartitionedCall/model_8/tf.math.sigmoid_9/Sigmoid"], "attr": {"T": {"type": "DT_FLOAT"}}}, {"name": "PartitionedCall/model_8/tf.math.add_13/Add", "op": "AddV2", "input": ["PartitionedCall/model_8/tf.strided_slice_3/StridedSlice", "PartitionedCall/model_8/tf.math.multiply_41/Mul"], "attr": {"T": {"type": "DT_FLOAT"}}}, {"name": "PartitionedCall/model_8/tf.nn.convolution_10/convolution", "op": "Conv2D", "input": ["PartitionedCall/model_8/tf.math.add_13/Add", "13550"], "device": "/device:CPU:0", "attr": {"dilations": {"list": {"i": ["1", "1", "1", "1"]}}, "explicit_paddings": {"list": {}}, "strides": {"list": {"i": ["1", "1", "1", "1"]}}, "use_cudnn_on_gpu": {"b": true}, "T": {"type": "DT_FLOAT"}, "padding": {"s": "U0FNRQ=="}, "data_format": {"s": "TkhXQw=="}}}, {"name": "PartitionedCall/model_8/tf.math.add_14/Add", "op": "AddV2", "input": ["PartitionedCall/model_8/tf.nn.convolution_10/convolution", "13552"], "attr": {"T": {"type": "DT_FLOAT"}}}, {"name": "PartitionedCall/model_8/tf.math.sigmoid_10/Sigmoid", "op": "Sigmoid", "input": ["PartitionedCall/model_8/tf.math.add_14/Add"], "attr": {"T": {"type": "DT_FLOAT"}}}, {"name": "PartitionedCall/model_8/tf.math.multiply_47/Mul", "op": "Mul", "input": ["PartitionedCall/model_8/tf.math.add_14/Add", "PartitionedCall/model_8/tf.math.sigmoid_10/Sigmoid"], "attr": {"T": {"type": "DT_FLOAT"}}}, {"name": "PartitionedCall/model_8/tf.nn.convolution_11/convolution", "op": "Conv2D", "input": ["PartitionedCall/model_8/tf.math.multiply_47/Mul", "13554"], "device": "/device:CPU:0", "attr": {"explicit_paddings": {"list": {}}, "T": {"type": "DT_FLOAT"}, "use_cudnn_on_gpu": {"b": true}, "padding": {"s": "U0FNRQ=="}, "data_format": {"s": "TkhXQw=="}, "strides": {"list": {"i": ["1", "1", "1", "1"]}}, "dilations": {"list": {"i": ["1", "1", "1", "1"]}}}}, {"name": "PartitionedCall/model_8/tf.math.add_15/Add", "op": "AddV2", "input": ["PartitionedCall/model_8/tf.nn.convolution_11/convolution", "13556"], "attr": {"T": {"type": "DT_FLOAT"}}}, {"name": "PartitionedCall/model_8/tf.math.sigmoid_11/Sigmoid", "op": "Sigmoid", "input": ["PartitionedCall/model_8/tf.math.add_15/Add"], "attr": {"T": {"type": "DT_FLOAT"}}}, {"name": "PartitionedCall/model_8/tf.math.multiply_51/Mul", "op": "Mul", "input": ["PartitionedCall/model_8/tf.math.add_15/Add", "PartitionedCall/model_8/tf.math.sigmoid_11/Sigmoid"], "attr": {"T": {"type": "DT_FLOAT"}}}, {"name": "PartitionedCall/model_8/tf.math.add_17/Add", "op": "AddV2", "input": ["PartitionedCall/model_8/tf.math.add_13/Add", "PartitionedCall/model_8/tf.math.multiply_51/Mul"], "attr": {"T": {"type": "DT_FLOAT"}}}, {"name": "PartitionedCall/model_8/tf.concat_1/concat", "op": "ConcatV2", "input": ["PartitionedCall/model_8/tf.strided_slice_2/StridedSlice", "PartitionedCall/model_8/tf.strided_slice_3/StridedSlice", "PartitionedCall/model_8/tf.math.add_13/Add", "PartitionedCall/model_8/tf.math.add_17/Add", "PartitionedCall/model_8/tf.concat_1/concat/axis"], "attr": {"T": {"type": "DT_FLOAT"}, "Tidx": {"type": "DT_INT32"}, "N": {"i": "4"}}}, {"name": "PartitionedCall/model_8/tf.nn.convolution_12/convolution", "op": "Conv2D", "input": ["PartitionedCall/model_8/tf.concat_1/concat", "13562"], "device": "/device:CPU:0", "attr": {"explicit_paddings": {"list": {}}, "padding": {"s": "U0FNRQ=="}, "T": {"type": "DT_FLOAT"}, "use_cudnn_on_gpu": {"b": true}, "data_format": {"s": "TkhXQw=="}, "dilations": {"list": {"i": ["1", "1", "1", "1"]}}, "strides": {"list": {"i": ["1", "1", "1", "1"]}}}}, {"name": "PartitionedCall/model_8/tf.math.add_18/Add", "op": "AddV2", "input": ["PartitionedCall/model_8/tf.nn.convolution_12/convolution", "13564"], "attr": {"T": {"type": "DT_FLOAT"}}}, {"name": "PartitionedCall/model_8/tf.math.sigmoid_12/Sigmoid", "op": "Sigmoid", "input": ["PartitionedCall/model_8/tf.math.add_18/Add"], "attr": {"T": {"type": "DT_FLOAT"}}}, {"name": "PartitionedCall/model_8/tf.math.multiply_57/Mul", "op": "Mul", "input": ["PartitionedCall/model_8/tf.math.add_18/Add", "PartitionedCall/model_8/tf.math.sigmoid_12/Sigmoid"], "attr": {"T": {"type": "DT_FLOAT"}}}, {"name": "PartitionedCall/model_8/tf.compat.v1.pad_3/Pad", "op": "Pad", "input": ["PartitionedCall/model_8/tf.math.multiply_57/Mul", "13566"], "attr": {"Tpaddings": {"type": "DT_INT32"}, "T": {"type": "DT_FLOAT"}}}, {"name": "PartitionedCall/model_8/tf.nn.convolution_13/convolution", "op": "Conv2D", "input": ["PartitionedCall/model_8/tf.compat.v1.pad_3/Pad", "13568"], "device": "/device:CPU:0", "attr": {"dilations": {"list": {"i": ["1", "1", "1", "1"]}}, "strides": {"list": {"i": ["1", "2", "2", "1"]}}, "explicit_paddings": {"list": {}}, "padding": {"s": "VkFMSUQ="}, "T": {"type": "DT_FLOAT"}, "use_cudnn_on_gpu": {"b": true}, "data_format": {"s": "TkhXQw=="}}}, {"name": "PartitionedCall/model_8/tf.math.add_19/Add", "op": "AddV2", "input": ["PartitionedCall/model_8/tf.nn.convolution_13/convolution", "13570"], "attr": {"T": {"type": "DT_FLOAT"}}}, {"name": "PartitionedCall/model_8/tf.math.sigmoid_13/Sigmoid", "op": "Sigmoid", "input": ["PartitionedCall/model_8/tf.math.add_19/Add"], "attr": {"T": {"type": "DT_FLOAT"}}}, {"name": "PartitionedCall/model_8/tf.math.multiply_61/Mul", "op": "Mul", "input": ["PartitionedCall/model_8/tf.math.add_19/Add", "PartitionedCall/model_8/tf.math.sigmoid_13/Sigmoid"], "attr": {"T": {"type": "DT_FLOAT"}}}, {"name": "PartitionedCall/model_8/tf.nn.convolution_14/convolution", "op": "Conv2D", "input": ["PartitionedCall/model_8/tf.math.multiply_61/Mul", "13572"], "device": "/device:CPU:0", "attr": {"use_cudnn_on_gpu": {"b": true}, "data_format": {"s": "TkhXQw=="}, "padding": {"s": "U0FNRQ=="}, "dilations": {"list": {"i": ["1", "1", "1", "1"]}}, "T": {"type": "DT_FLOAT"}, "explicit_paddings": {"list": {}}, "strides": {"list": {"i": ["1", "1", "1", "1"]}}}}, {"name": "PartitionedCall/model_8/tf.math.add_20/Add", "op": "AddV2", "input": ["PartitionedCall/model_8/tf.nn.convolution_14/convolution", "13574"], "attr": {"T": {"type": "DT_FLOAT"}}}, {"name": "PartitionedCall/model_8/tf.math.sigmoid_14/Sigmoid", "op": "Sigmoid", "input": ["PartitionedCall/model_8/tf.math.add_20/Add"], "attr": {"T": {"type": "DT_FLOAT"}}}, {"name": "PartitionedCall/model_8/tf.math.multiply_65/Mul", "op": "Mul", "input": ["PartitionedCall/model_8/tf.math.add_20/Add", "PartitionedCall/model_8/tf.math.sigmoid_14/Sigmoid"], "attr": {"T": {"type": "DT_FLOAT"}}}, {"name": "PartitionedCall/model_8/tf.strided_slice_4/StridedSlice", "op": "StridedSlice", "input": ["PartitionedCall/model_8/tf.math.multiply_65/Mul", "13596", "13598", "PartitionedCall/model_8/tf.strided_slice_4/ones_like"], "attr": {"begin_mask": {"i": "15"}, "new_axis_mask": {"i": "0"}, "shrink_axis_mask": {"i": "0"}, "end_mask": {"i": "7"}, "Index": {"type": "DT_INT64"}, "ellipsis_mask": {"i": "0"}, "T": {"type": "DT_FLOAT"}}}, {"name": "PartitionedCall/model_8/tf.strided_slice_5/StridedSlice", "op": "StridedSlice", "input": ["PartitionedCall/model_8/tf.math.multiply_65/Mul", "13576", "13578", "PartitionedCall/model_8/tf.strided_slice_5/ones_like"], "attr": {"shrink_axis_mask": {"i": "0"}, "end_mask": {"i": "7"}, "Index": {"type": "DT_INT64"}, "ellipsis_mask": {"i": "0"}, "T": {"type": "DT_FLOAT"}, "begin_mask": {"i": "7"}, "new_axis_mask": {"i": "0"}}}, {"name": "PartitionedCall/model_8/tf.nn.convolution_15/convolution", "op": "Conv2D", "input": ["PartitionedCall/model_8/tf.strided_slice_5/StridedSlice", "13580"], "device": "/device:CPU:0", "attr": {"padding": {"s": "U0FNRQ=="}, "T": {"type": "DT_FLOAT"}, "explicit_paddings": {"list": {}}, "use_cudnn_on_gpu": {"b": true}, "data_format": {"s": "TkhXQw=="}, "dilations": {"list": {"i": ["1", "1", "1", "1"]}}, "strides": {"list": {"i": ["1", "1", "1", "1"]}}}}, {"name": "PartitionedCall/model_8/tf.math.add_21/Add", "op": "AddV2", "input": ["PartitionedCall/model_8/tf.nn.convolution_15/convolution", "13582"], "attr": {"T": {"type": "DT_FLOAT"}}}, {"name": "PartitionedCall/model_8/tf.math.sigmoid_15/Sigmoid", "op": "Sigmoid", "input": ["PartitionedCall/model_8/tf.math.add_21/Add"], "attr": {"T": {"type": "DT_FLOAT"}}}, {"name": "PartitionedCall/model_8/tf.math.multiply_69/Mul", "op": "Mul", "input": ["PartitionedCall/model_8/tf.math.add_21/Add", "PartitionedCall/model_8/tf.math.sigmoid_15/Sigmoid"], "attr": {"T": {"type": "DT_FLOAT"}}}, {"name": "PartitionedCall/model_8/tf.nn.convolution_16/convolution", "op": "Conv2D", "input": ["PartitionedCall/model_8/tf.math.multiply_69/Mul", "13584"], "device": "/device:CPU:0", "attr": {"explicit_paddings": {"list": {}}, "strides": {"list": {"i": ["1", "1", "1", "1"]}}, "dilations": {"list": {"i": ["1", "1", "1", "1"]}}, "use_cudnn_on_gpu": {"b": true}, "padding": {"s": "U0FNRQ=="}, "data_format": {"s": "TkhXQw=="}, "T": {"type": "DT_FLOAT"}}}, {"name": "PartitionedCall/model_8/tf.math.add_22/Add", "op": "AddV2", "input": ["PartitionedCall/model_8/tf.nn.convolution_16/convolution", "13586"], "attr": {"T": {"type": "DT_FLOAT"}}}, {"name": "PartitionedCall/model_8/tf.math.sigmoid_16/Sigmoid", "op": "Sigmoid", "input": ["PartitionedCall/model_8/tf.math.add_22/Add"], "attr": {"T": {"type": "DT_FLOAT"}}}, {"name": "PartitionedCall/model_8/tf.math.multiply_73/Mul", "op": "Mul", "input": ["PartitionedCall/model_8/tf.math.add_22/Add", "PartitionedCall/model_8/tf.math.sigmoid_16/Sigmoid"], "attr": {"T": {"type": "DT_FLOAT"}}}, {"name": "PartitionedCall/model_8/tf.math.add_24/Add", "op": "AddV2", "input": ["PartitionedCall/model_8/tf.strided_slice_5/StridedSlice", "PartitionedCall/model_8/tf.math.multiply_73/Mul"], "attr": {"T": {"type": "DT_FLOAT"}}}, {"name": "PartitionedCall/model_8/tf.nn.convolution_17/convolution", "op": "Conv2D", "input": ["PartitionedCall/model_8/tf.math.add_24/Add", "13588"], "device": "/device:CPU:0", "attr": {"dilations": {"list": {"i": ["1", "1", "1", "1"]}}, "T": {"type": "DT_FLOAT"}, "padding": {"s": "U0FNRQ=="}, "explicit_paddings": {"list": {}}, "strides": {"list": {"i": ["1", "1", "1", "1"]}}, "use_cudnn_on_gpu": {"b": true}, "data_format": {"s": "TkhXQw=="}}}, {"name": "PartitionedCall/model_8/tf.math.add_25/Add", "op": "AddV2", "input": ["PartitionedCall/model_8/tf.nn.convolution_17/convolution", "13590"], "attr": {"T": {"type": "DT_FLOAT"}}}, {"name": "PartitionedCall/model_8/tf.math.sigmoid_17/Sigmoid", "op": "Sigmoid", "input": ["PartitionedCall/model_8/tf.math.add_25/Add"], "attr": {"T": {"type": "DT_FLOAT"}}}, {"name": "PartitionedCall/model_8/tf.math.multiply_79/Mul", "op": "Mul", "input": ["PartitionedCall/model_8/tf.math.add_25/Add", "PartitionedCall/model_8/tf.math.sigmoid_17/Sigmoid"], "attr": {"T": {"type": "DT_FLOAT"}}}, {"name": "PartitionedCall/model_8/tf.nn.convolution_18/convolution", "op": "Conv2D", "input": ["PartitionedCall/model_8/tf.math.multiply_79/Mul", "13592"], "device": "/device:CPU:0", "attr": {"padding": {"s": "U0FNRQ=="}, "dilations": {"list": {"i": ["1", "1", "1", "1"]}}, "use_cudnn_on_gpu": {"b": true}, "strides": {"list": {"i": ["1", "1", "1", "1"]}}, "explicit_paddings": {"list": {}}, "T": {"type": "DT_FLOAT"}, "data_format": {"s": "TkhXQw=="}}}, {"name": "PartitionedCall/model_8/tf.math.add_26/Add", "op": "AddV2", "input": ["PartitionedCall/model_8/tf.nn.convolution_18/convolution", "13594"], "attr": {"T": {"type": "DT_FLOAT"}}}, {"name": "PartitionedCall/model_8/tf.math.sigmoid_18/Sigmoid", "op": "Sigmoid", "input": ["PartitionedCall/model_8/tf.math.add_26/Add"], "attr": {"T": {"type": "DT_FLOAT"}}}, {"name": "PartitionedCall/model_8/tf.math.multiply_83/Mul", "op": "Mul", "input": ["PartitionedCall/model_8/tf.math.add_26/Add", "PartitionedCall/model_8/tf.math.sigmoid_18/Sigmoid"], "attr": {"T": {"type": "DT_FLOAT"}}}, {"name": "PartitionedCall/model_8/tf.math.add_28/Add", "op": "AddV2", "input": ["PartitionedCall/model_8/tf.math.add_24/Add", "PartitionedCall/model_8/tf.math.multiply_83/Mul"], "attr": {"T": {"type": "DT_FLOAT"}}}, {"name": "PartitionedCall/model_8/tf.concat_2/concat", "op": "ConcatV2", "input": ["PartitionedCall/model_8/tf.strided_slice_4/StridedSlice", "PartitionedCall/model_8/tf.strided_slice_5/StridedSlice", "PartitionedCall/model_8/tf.math.add_24/Add", "PartitionedCall/model_8/tf.math.add_28/Add", "PartitionedCall/model_8/tf.concat_2/concat/axis"], "attr": {"N": {"i": "4"}, "Tidx": {"type": "DT_INT32"}, "T": {"type": "DT_FLOAT"}}}, {"name": "PartitionedCall/model_8/tf.nn.convolution_19/convolution", "op": "Conv2D", "input": ["PartitionedCall/model_8/tf.concat_2/concat", "13600"], "device": "/device:CPU:0", "attr": {"strides": {"list": {"i": ["1", "1", "1", "1"]}}, "data_format": {"s": "TkhXQw=="}, "use_cudnn_on_gpu": {"b": true}, "dilations": {"list": {"i": ["1", "1", "1", "1"]}}, "T": {"type": "DT_FLOAT"}, "padding": {"s": "U0FNRQ=="}, "explicit_paddings": {"list": {}}}}, {"name": "PartitionedCall/model_8/tf.math.add_29/Add", "op": "AddV2", "input": ["PartitionedCall/model_8/tf.nn.convolution_19/convolution", "13602"], "attr": {"T": {"type": "DT_FLOAT"}}}, {"name": "PartitionedCall/model_8/tf.math.sigmoid_19/Sigmoid", "op": "Sigmoid", "input": ["PartitionedCall/model_8/tf.math.add_29/Add"], "attr": {"T": {"type": "DT_FLOAT"}}}, {"name": "PartitionedCall/model_8/tf.math.multiply_89/Mul", "op": "Mul", "input": ["PartitionedCall/model_8/tf.math.add_29/Add", "PartitionedCall/model_8/tf.math.sigmoid_19/Sigmoid"], "attr": {"T": {"type": "DT_FLOAT"}}}, {"name": "PartitionedCall/model_8/tf.compat.v1.pad_4/Pad", "op": "Pad", "input": ["PartitionedCall/model_8/tf.math.multiply_89/Mul", "13604"], "attr": {"Tpaddings": {"type": "DT_INT32"}, "T": {"type": "DT_FLOAT"}}}, {"name": "PartitionedCall/model_8/tf.nn.convolution_20/convolution", "op": "Conv2D", "input": ["PartitionedCall/model_8/tf.compat.v1.pad_4/Pad", "13606"], "device": "/device:CPU:0", "attr": {"explicit_paddings": {"list": {}}, "padding": {"s": "VkFMSUQ="}, "T": {"type": "DT_FLOAT"}, "data_format": {"s": "TkhXQw=="}, "strides": {"list": {"i": ["1", "2", "2", "1"]}}, "dilations": {"list": {"i": ["1", "1", "1", "1"]}}, "use_cudnn_on_gpu": {"b": true}}}, {"name": "PartitionedCall/model_8/tf.math.add_30/Add", "op": "AddV2", "input": ["PartitionedCall/model_8/tf.nn.convolution_20/convolution", "13608"], "attr": {"T": {"type": "DT_FLOAT"}}}, {"name": "PartitionedCall/model_8/tf.math.sigmoid_20/Sigmoid", "op": "Sigmoid", "input": ["PartitionedCall/model_8/tf.math.add_30/Add"], "attr": {"T": {"type": "DT_FLOAT"}}}, {"name": "PartitionedCall/model_8/tf.math.multiply_93/Mul", "op": "Mul", "input": ["PartitionedCall/model_8/tf.math.add_30/Add", "PartitionedCall/model_8/tf.math.sigmoid_20/Sigmoid"], "attr": {"T": {"type": "DT_FLOAT"}}}, {"name": "PartitionedCall/model_8/tf.nn.convolution_21/convolution", "op": "Conv2D", "input": ["PartitionedCall/model_8/tf.math.multiply_93/Mul", "13610"], "device": "/device:CPU:0", "attr": {"data_format": {"s": "TkhXQw=="}, "padding": {"s": "U0FNRQ=="}, "use_cudnn_on_gpu": {"b": true}, "T": {"type": "DT_FLOAT"}, "explicit_paddings": {"list": {}}, "strides": {"list": {"i": ["1", "1", "1", "1"]}}, "dilations": {"list": {"i": ["1", "1", "1", "1"]}}}}, {"name": "PartitionedCall/model_8/tf.math.add_31/Add", "op": "AddV2", "input": ["PartitionedCall/model_8/tf.nn.convolution_21/convolution", "13612"], "attr": {"T": {"type": "DT_FLOAT"}}}, {"name": "PartitionedCall/model_8/tf.math.sigmoid_21/Sigmoid", "op": "Sigmoid", "input": ["PartitionedCall/model_8/tf.math.add_31/Add"], "attr": {"T": {"type": "DT_FLOAT"}}}, {"name": "PartitionedCall/model_8/tf.math.multiply_97/Mul", "op": "Mul", "input": ["PartitionedCall/model_8/tf.math.add_31/Add", "PartitionedCall/model_8/tf.math.sigmoid_21/Sigmoid"], "attr": {"T": {"type": "DT_FLOAT"}}}, {"name": "PartitionedCall/model_8/tf.strided_slice_6/StridedSlice", "op": "StridedSlice", "input": ["PartitionedCall/model_8/tf.math.multiply_97/Mul", "13626", "13628", "PartitionedCall/model_8/tf.strided_slice_6/ones_like"], "attr": {"ellipsis_mask": {"i": "0"}, "new_axis_mask": {"i": "0"}, "end_mask": {"i": "7"}, "begin_mask": {"i": "15"}, "shrink_axis_mask": {"i": "0"}, "T": {"type": "DT_FLOAT"}, "Index": {"type": "DT_INT64"}}}, {"name": "PartitionedCall/model_8/tf.strided_slice_7/StridedSlice", "op": "StridedSlice", "input": ["PartitionedCall/model_8/tf.math.multiply_97/Mul", "13614", "13616", "PartitionedCall/model_8/tf.strided_slice_7/ones_like"], "attr": {"T": {"type": "DT_FLOAT"}, "ellipsis_mask": {"i": "0"}, "shrink_axis_mask": {"i": "0"}, "begin_mask": {"i": "7"}, "Index": {"type": "DT_INT64"}, "end_mask": {"i": "7"}, "new_axis_mask": {"i": "0"}}}, {"name": "PartitionedCall/model_8/tf.nn.convolution_22/convolution", "op": "Conv2D", "input": ["PartitionedCall/model_8/tf.strided_slice_7/StridedSlice", "13618"], "device": "/device:CPU:0", "attr": {"T": {"type": "DT_FLOAT"}, "dilations": {"list": {"i": ["1", "1", "1", "1"]}}, "strides": {"list": {"i": ["1", "1", "1", "1"]}}, "padding": {"s": "U0FNRQ=="}, "explicit_paddings": {"list": {}}, "data_format": {"s": "TkhXQw=="}, "use_cudnn_on_gpu": {"b": true}}}, {"name": "PartitionedCall/model_8/tf.math.add_32/Add", "op": "AddV2", "input": ["PartitionedCall/model_8/tf.nn.convolution_22/convolution", "13620"], "attr": {"T": {"type": "DT_FLOAT"}}}, {"name": "PartitionedCall/model_8/tf.math.sigmoid_22/Sigmoid", "op": "Sigmoid", "input": ["PartitionedCall/model_8/tf.math.add_32/Add"], "attr": {"T": {"type": "DT_FLOAT"}}}, {"name": "PartitionedCall/model_8/tf.math.multiply_101/Mul", "op": "Mul", "input": ["PartitionedCall/model_8/tf.math.add_32/Add", "PartitionedCall/model_8/tf.math.sigmoid_22/Sigmoid"], "attr": {"T": {"type": "DT_FLOAT"}}}, {"name": "PartitionedCall/model_8/tf.nn.convolution_23/convolution", "op": "Conv2D", "input": ["PartitionedCall/model_8/tf.math.multiply_101/Mul", "13622"], "device": "/device:CPU:0", "attr": {"strides": {"list": {"i": ["1", "1", "1", "1"]}}, "explicit_paddings": {"list": {}}, "T": {"type": "DT_FLOAT"}, "data_format": {"s": "TkhXQw=="}, "padding": {"s": "U0FNRQ=="}, "dilations": {"list": {"i": ["1", "1", "1", "1"]}}, "use_cudnn_on_gpu": {"b": true}}}, {"name": "PartitionedCall/model_8/tf.math.add_33/Add", "op": "AddV2", "input": ["PartitionedCall/model_8/tf.nn.convolution_23/convolution", "13624"], "attr": {"T": {"type": "DT_FLOAT"}}}, {"name": "PartitionedCall/model_8/tf.math.sigmoid_23/Sigmoid", "op": "Sigmoid", "input": ["PartitionedCall/model_8/tf.math.add_33/Add"], "attr": {"T": {"type": "DT_FLOAT"}}}, {"name": "PartitionedCall/model_8/tf.math.multiply_105/Mul", "op": "Mul", "input": ["PartitionedCall/model_8/tf.math.add_33/Add", "PartitionedCall/model_8/tf.math.sigmoid_23/Sigmoid"], "attr": {"T": {"type": "DT_FLOAT"}}}, {"name": "PartitionedCall/model_8/tf.math.add_35/Add", "op": "AddV2", "input": ["PartitionedCall/model_8/tf.strided_slice_7/StridedSlice", "PartitionedCall/model_8/tf.math.multiply_105/Mul"], "attr": {"T": {"type": "DT_FLOAT"}}}, {"name": "PartitionedCall/model_8/tf.concat_3/concat", "op": "ConcatV2", "input": ["PartitionedCall/model_8/tf.strided_slice_6/StridedSlice", "PartitionedCall/model_8/tf.strided_slice_7/StridedSlice", "PartitionedCall/model_8/tf.math.add_35/Add", "PartitionedCall/model_8/tf.concat_3/concat/axis"], "attr": {"N": {"i": "3"}, "Tidx": {"type": "DT_INT32"}, "T": {"type": "DT_FLOAT"}}}, {"name": "PartitionedCall/model_8/tf.nn.convolution_24/convolution", "op": "Conv2D", "input": ["PartitionedCall/model_8/tf.concat_3/concat", "13630"], "device": "/device:CPU:0", "attr": {"use_cudnn_on_gpu": {"b": true}, "data_format": {"s": "TkhXQw=="}, "dilations": {"list": {"i": ["1", "1", "1", "1"]}}, "explicit_paddings": {"list": {}}, "strides": {"list": {"i": ["1", "1", "1", "1"]}}, "padding": {"s": "U0FNRQ=="}, "T": {"type": "DT_FLOAT"}}}, {"name": "PartitionedCall/model_8/tf.math.add_36/Add", "op": "AddV2", "input": ["PartitionedCall/model_8/tf.nn.convolution_24/convolution", "13632"], "attr": {"T": {"type": "DT_FLOAT"}}}, {"name": "PartitionedCall/model_8/tf.math.sigmoid_24/Sigmoid", "op": "Sigmoid", "input": ["PartitionedCall/model_8/tf.math.add_36/Add"], "attr": {"T": {"type": "DT_FLOAT"}}}, {"name": "PartitionedCall/model_8/tf.math.multiply_111/Mul", "op": "Mul", "input": ["PartitionedCall/model_8/tf.math.add_36/Add", "PartitionedCall/model_8/tf.math.sigmoid_24/Sigmoid"], "attr": {"T": {"type": "DT_FLOAT"}}}, {"name": "PartitionedCall/model_8/tf.nn.convolution_25/convolution", "op": "Conv2D", "input": ["PartitionedCall/model_8/tf.math.multiply_111/Mul", "13634"], "device": "/device:CPU:0", "attr": {"explicit_paddings": {"list": {}}, "strides": {"list": {"i": ["1", "1", "1", "1"]}}, "padding": {"s": "U0FNRQ=="}, "dilations": {"list": {"i": ["1", "1", "1", "1"]}}, "T": {"type": "DT_FLOAT"}, "data_format": {"s": "TkhXQw=="}, "use_cudnn_on_gpu": {"b": true}}}, {"name": "PartitionedCall/model_8/tf.math.add_37/Add", "op": "AddV2", "input": ["PartitionedCall/model_8/tf.nn.convolution_25/convolution", "13636"], "attr": {"T": {"type": "DT_FLOAT"}}}, {"name": "PartitionedCall/model_8/tf.math.sigmoid_25/Sigmoid", "op": "Sigmoid", "input": ["PartitionedCall/model_8/tf.math.add_37/Add"], "attr": {"T": {"type": "DT_FLOAT"}}}, {"name": "PartitionedCall/model_8/tf.math.multiply_115/Mul", "op": "Mul", "input": ["PartitionedCall/model_8/tf.math.add_37/Add", "PartitionedCall/model_8/tf.math.sigmoid_25/Sigmoid"], "attr": {"T": {"type": "DT_FLOAT"}}}, {"name": "PartitionedCall/model_8/tf.compat.v1.nn.pool/max_pool", "op": "MaxPool", "input": ["PartitionedCall/model_8/tf.math.multiply_115/Mul"], "attr": {"strides": {"list": {"i": ["1", "1", "1", "1"]}}, "padding": {"s": "U0FNRQ=="}, "explicit_paddings": {"list": {}}, "T": {"type": "DT_FLOAT"}, "data_format": {"s": "TkhXQw=="}, "ksize": {"list": {"i": ["1", "5", "5", "1"]}}}}, {"name": "PartitionedCall/model_8/tf.compat.v1.nn.pool_1/max_pool", "op": "MaxPool", "input": ["PartitionedCall/model_8/tf.compat.v1.nn.pool/max_pool"], "attr": {"explicit_paddings": {"list": {}}, "T": {"type": "DT_FLOAT"}, "strides": {"list": {"i": ["1", "1", "1", "1"]}}, "ksize": {"list": {"i": ["1", "5", "5", "1"]}}, "padding": {"s": "U0FNRQ=="}, "data_format": {"s": "TkhXQw=="}}}, {"name": "PartitionedCall/model_8/tf.compat.v1.nn.pool_2/max_pool", "op": "MaxPool", "input": ["PartitionedCall/model_8/tf.compat.v1.nn.pool_1/max_pool"], "attr": {"data_format": {"s": "TkhXQw=="}, "padding": {"s": "U0FNRQ=="}, "T": {"type": "DT_FLOAT"}, "ksize": {"list": {"i": ["1", "5", "5", "1"]}}, "strides": {"list": {"i": ["1", "1", "1", "1"]}}, "explicit_paddings": {"list": {}}}}, {"name": "PartitionedCall/model_8/tf.concat_4/concat", "op": "ConcatV2", "input": ["PartitionedCall/model_8/tf.math.multiply_115/Mul", "PartitionedCall/model_8/tf.compat.v1.nn.pool/max_pool", "PartitionedCall/model_8/tf.compat.v1.nn.pool_1/max_pool", "PartitionedCall/model_8/tf.compat.v1.nn.pool_2/max_pool", "PartitionedCall/model_8/tf.concat_4/concat/axis"], "attr": {"N": {"i": "4"}, "Tidx": {"type": "DT_INT32"}, "T": {"type": "DT_FLOAT"}}}, {"name": "PartitionedCall/model_8/tf.nn.convolution_26/convolution", "op": "Conv2D", "input": ["PartitionedCall/model_8/tf.concat_4/concat", "13638"], "device": "/device:CPU:0", "attr": {"T": {"type": "DT_FLOAT"}, "explicit_paddings": {"list": {}}, "dilations": {"list": {"i": ["1", "1", "1", "1"]}}, "data_format": {"s": "TkhXQw=="}, "padding": {"s": "U0FNRQ=="}, "use_cudnn_on_gpu": {"b": true}, "strides": {"list": {"i": ["1", "1", "1", "1"]}}}}, {"name": "PartitionedCall/model_8/tf.math.add_38/Add", "op": "AddV2", "input": ["PartitionedCall/model_8/tf.nn.convolution_26/convolution", "13640"], "attr": {"T": {"type": "DT_FLOAT"}}}, {"name": "PartitionedCall/model_8/tf.math.sigmoid_26/Sigmoid", "op": "Sigmoid", "input": ["PartitionedCall/model_8/tf.math.add_38/Add"], "attr": {"T": {"type": "DT_FLOAT"}}}, {"name": "PartitionedCall/model_8/tf.math.multiply_119/Mul", "op": "Mul", "input": ["PartitionedCall/model_8/tf.math.add_38/Add", "PartitionedCall/model_8/tf.math.sigmoid_26/Sigmoid"], "attr": {"T": {"type": "DT_FLOAT"}}}, {"name": "PartitionedCall/model_8/lambda//model.10/Resize", "op": "ResizeNearestNeighbor", "input": ["PartitionedCall/model_8/tf.math.multiply_119/Mul", "PartitionedCall/model_8/lambda//model.10/Resize/size"], "attr": {"T": {"type": "DT_FLOAT"}, "half_pixel_centers": {"b": false}, "align_corners": {"b": false}}}, {"name": "PartitionedCall/model_8/tf.concat_5/concat", "op": "ConcatV2", "input": ["PartitionedCall/model_8/lambda//model.10/Resize", "PartitionedCall/model_8/tf.math.multiply_89/Mul", "PartitionedCall/model_8/tf.concat_5/concat/axis"], "attr": {"Tidx": {"type": "DT_INT32"}, "T": {"type": "DT_FLOAT"}, "N": {"i": "2"}}}, {"name": "PartitionedCall/model_8/tf.nn.convolution_27/convolution", "op": "Conv2D", "input": ["PartitionedCall/model_8/tf.concat_5/concat", "13642"], "device": "/device:CPU:0", "attr": {"use_cudnn_on_gpu": {"b": true}, "T": {"type": "DT_FLOAT"}, "explicit_paddings": {"list": {}}, "strides": {"list": {"i": ["1", "1", "1", "1"]}}, "padding": {"s": "U0FNRQ=="}, "dilations": {"list": {"i": ["1", "1", "1", "1"]}}, "data_format": {"s": "TkhXQw=="}}}, {"name": "PartitionedCall/model_8/tf.math.add_39/Add", "op": "AddV2", "input": ["PartitionedCall/model_8/tf.nn.convolution_27/convolution", "13644"], "attr": {"T": {"type": "DT_FLOAT"}}}, {"name": "PartitionedCall/model_8/tf.math.sigmoid_27/Sigmoid", "op": "Sigmoid", "input": ["PartitionedCall/model_8/tf.math.add_39/Add"], "attr": {"T": {"type": "DT_FLOAT"}}}, {"name": "PartitionedCall/model_8/tf.math.multiply_123/Mul", "op": "Mul", "input": ["PartitionedCall/model_8/tf.math.add_39/Add", "PartitionedCall/model_8/tf.math.sigmoid_27/Sigmoid"], "attr": {"T": {"type": "DT_FLOAT"}}}, {"name": "PartitionedCall/model_8/tf.strided_slice_8/StridedSlice", "op": "StridedSlice", "input": ["PartitionedCall/model_8/tf.math.multiply_123/Mul", "13658", "13660", "PartitionedCall/model_8/tf.strided_slice_8/ones_like"], "attr": {"shrink_axis_mask": {"i": "0"}, "begin_mask": {"i": "15"}, "Index": {"type": "DT_INT64"}, "new_axis_mask": {"i": "0"}, "end_mask": {"i": "7"}, "T": {"type": "DT_FLOAT"}, "ellipsis_mask": {"i": "0"}}}, {"name": "PartitionedCall/model_8/tf.strided_slice_9/StridedSlice", "op": "StridedSlice", "input": ["PartitionedCall/model_8/tf.math.multiply_123/Mul", "13646", "13648", "PartitionedCall/model_8/tf.strided_slice_9/ones_like"], "attr": {"Index": {"type": "DT_INT64"}, "begin_mask": {"i": "7"}, "T": {"type": "DT_FLOAT"}, "shrink_axis_mask": {"i": "0"}, "end_mask": {"i": "7"}, "ellipsis_mask": {"i": "0"}, "new_axis_mask": {"i": "0"}}}, {"name": "PartitionedCall/model_8/tf.nn.convolution_28/convolution", "op": "Conv2D", "input": ["PartitionedCall/model_8/tf.strided_slice_9/StridedSlice", "13650"], "device": "/device:CPU:0", "attr": {"padding": {"s": "U0FNRQ=="}, "explicit_paddings": {"list": {}}, "strides": {"list": {"i": ["1", "1", "1", "1"]}}, "T": {"type": "DT_FLOAT"}, "dilations": {"list": {"i": ["1", "1", "1", "1"]}}, "data_format": {"s": "TkhXQw=="}, "use_cudnn_on_gpu": {"b": true}}}, {"name": "PartitionedCall/model_8/tf.math.add_40/Add", "op": "AddV2", "input": ["PartitionedCall/model_8/tf.nn.convolution_28/convolution", "13652"], "attr": {"T": {"type": "DT_FLOAT"}}}, {"name": "PartitionedCall/model_8/tf.math.sigmoid_28/Sigmoid", "op": "Sigmoid", "input": ["PartitionedCall/model_8/tf.math.add_40/Add"], "attr": {"T": {"type": "DT_FLOAT"}}}, {"name": "PartitionedCall/model_8/tf.math.multiply_127/Mul", "op": "Mul", "input": ["PartitionedCall/model_8/tf.math.add_40/Add", "PartitionedCall/model_8/tf.math.sigmoid_28/Sigmoid"], "attr": {"T": {"type": "DT_FLOAT"}}}, {"name": "PartitionedCall/model_8/tf.nn.convolution_29/convolution", "op": "Conv2D", "input": ["PartitionedCall/model_8/tf.math.multiply_127/Mul", "13654"], "device": "/device:CPU:0", "attr": {"data_format": {"s": "TkhXQw=="}, "strides": {"list": {"i": ["1", "1", "1", "1"]}}, "padding": {"s": "U0FNRQ=="}, "T": {"type": "DT_FLOAT"}, "explicit_paddings": {"list": {}}, "dilations": {"list": {"i": ["1", "1", "1", "1"]}}, "use_cudnn_on_gpu": {"b": true}}}, {"name": "PartitionedCall/model_8/tf.math.add_41/Add", "op": "AddV2", "input": ["PartitionedCall/model_8/tf.nn.convolution_29/convolution", "13656"], "attr": {"T": {"type": "DT_FLOAT"}}}, {"name": "PartitionedCall/model_8/tf.math.sigmoid_29/Sigmoid", "op": "Sigmoid", "input": ["PartitionedCall/model_8/tf.math.add_41/Add"], "attr": {"T": {"type": "DT_FLOAT"}}}, {"name": "PartitionedCall/model_8/tf.math.multiply_131/Mul", "op": "Mul", "input": ["PartitionedCall/model_8/tf.math.add_41/Add", "PartitionedCall/model_8/tf.math.sigmoid_29/Sigmoid"], "attr": {"T": {"type": "DT_FLOAT"}}}, {"name": "PartitionedCall/model_8/tf.concat_6/concat", "op": "ConcatV2", "input": ["PartitionedCall/model_8/tf.strided_slice_8/StridedSlice", "PartitionedCall/model_8/tf.strided_slice_9/StridedSlice", "PartitionedCall/model_8/tf.math.multiply_131/Mul", "PartitionedCall/model_8/tf.concat_6/concat/axis"], "attr": {"N": {"i": "3"}, "T": {"type": "DT_FLOAT"}, "Tidx": {"type": "DT_INT32"}}}, {"name": "PartitionedCall/model_8/tf.nn.convolution_30/convolution", "op": "Conv2D", "input": ["PartitionedCall/model_8/tf.concat_6/concat", "13662"], "device": "/device:CPU:0", "attr": {"strides": {"list": {"i": ["1", "1", "1", "1"]}}, "padding": {"s": "U0FNRQ=="}, "explicit_paddings": {"list": {}}, "dilations": {"list": {"i": ["1", "1", "1", "1"]}}, "data_format": {"s": "TkhXQw=="}, "T": {"type": "DT_FLOAT"}, "use_cudnn_on_gpu": {"b": true}}}, {"name": "PartitionedCall/model_8/tf.math.add_42/Add", "op": "AddV2", "input": ["PartitionedCall/model_8/tf.nn.convolution_30/convolution", "13664"], "attr": {"T": {"type": "DT_FLOAT"}}}, {"name": "PartitionedCall/model_8/tf.math.sigmoid_30/Sigmoid", "op": "Sigmoid", "input": ["PartitionedCall/model_8/tf.math.add_42/Add"], "attr": {"T": {"type": "DT_FLOAT"}}}, {"name": "PartitionedCall/model_8/tf.math.multiply_135/Mul", "op": "Mul", "input": ["PartitionedCall/model_8/tf.math.add_42/Add", "PartitionedCall/model_8/tf.math.sigmoid_30/Sigmoid"], "attr": {"T": {"type": "DT_FLOAT"}}}, {"name": "PartitionedCall/model_8/lambda_1//model.13/Resize", "op": "ResizeNearestNeighbor", "input": ["PartitionedCall/model_8/tf.math.multiply_135/Mul", "PartitionedCall/model_8/lambda_1//model.13/Resize/size"], "attr": {"T": {"type": "DT_FLOAT"}, "align_corners": {"b": false}, "half_pixel_centers": {"b": false}}}, {"name": "PartitionedCall/model_8/tf.concat_7/concat", "op": "ConcatV2", "input": ["PartitionedCall/model_8/lambda_1//model.13/Resize", "PartitionedCall/model_8/tf.math.multiply_57/Mul", "PartitionedCall/model_8/tf.concat_7/concat/axis"], "attr": {"N": {"i": "2"}, "Tidx": {"type": "DT_INT32"}, "T": {"type": "DT_FLOAT"}}}, {"name": "PartitionedCall/model_8/tf.nn.convolution_31/convolution", "op": "Conv2D", "input": ["PartitionedCall/model_8/tf.concat_7/concat", "13666"], "device": "/device:CPU:0", "attr": {"T": {"type": "DT_FLOAT"}, "dilations": {"list": {"i": ["1", "1", "1", "1"]}}, "explicit_paddings": {"list": {}}, "data_format": {"s": "TkhXQw=="}, "use_cudnn_on_gpu": {"b": true}, "padding": {"s": "U0FNRQ=="}, "strides": {"list": {"i": ["1", "1", "1", "1"]}}}}, {"name": "PartitionedCall/model_8/tf.math.add_43/Add", "op": "AddV2", "input": ["PartitionedCall/model_8/tf.nn.convolution_31/convolution", "13668"], "attr": {"T": {"type": "DT_FLOAT"}}}, {"name": "PartitionedCall/model_8/tf.math.sigmoid_31/Sigmoid", "op": "Sigmoid", "input": ["PartitionedCall/model_8/tf.math.add_43/Add"], "attr": {"T": {"type": "DT_FLOAT"}}}, {"name": "PartitionedCall/model_8/tf.math.multiply_139/Mul", "op": "Mul", "input": ["PartitionedCall/model_8/tf.math.add_43/Add", "PartitionedCall/model_8/tf.math.sigmoid_31/Sigmoid"], "attr": {"T": {"type": "DT_FLOAT"}}}, {"name": "PartitionedCall/model_8/tf.strided_slice_10/StridedSlice", "op": "StridedSlice", "input": ["PartitionedCall/model_8/tf.math.multiply_139/Mul", "13682", "13684", "PartitionedCall/model_8/tf.strided_slice_10/ones_like"], "attr": {"ellipsis_mask": {"i": "0"}, "new_axis_mask": {"i": "0"}, "begin_mask": {"i": "15"}, "Index": {"type": "DT_INT64"}, "shrink_axis_mask": {"i": "0"}, "T": {"type": "DT_FLOAT"}, "end_mask": {"i": "7"}}}, {"name": "PartitionedCall/model_8/tf.strided_slice_11/StridedSlice", "op": "StridedSlice", "input": ["PartitionedCall/model_8/tf.math.multiply_139/Mul", "13670", "13672", "PartitionedCall/model_8/tf.strided_slice_11/ones_like"], "attr": {"Index": {"type": "DT_INT64"}, "shrink_axis_mask": {"i": "0"}, "end_mask": {"i": "7"}, "T": {"type": "DT_FLOAT"}, "ellipsis_mask": {"i": "0"}, "begin_mask": {"i": "7"}, "new_axis_mask": {"i": "0"}}}, {"name": "PartitionedCall/model_8/tf.nn.convolution_32/convolution", "op": "Conv2D", "input": ["PartitionedCall/model_8/tf.strided_slice_11/StridedSlice", "13674"], "device": "/device:CPU:0", "attr": {"dilations": {"list": {"i": ["1", "1", "1", "1"]}}, "data_format": {"s": "TkhXQw=="}, "explicit_paddings": {"list": {}}, "T": {"type": "DT_FLOAT"}, "use_cudnn_on_gpu": {"b": true}, "padding": {"s": "U0FNRQ=="}, "strides": {"list": {"i": ["1", "1", "1", "1"]}}}}, {"name": "PartitionedCall/model_8/tf.math.add_44/Add", "op": "AddV2", "input": ["PartitionedCall/model_8/tf.nn.convolution_32/convolution", "13676"], "attr": {"T": {"type": "DT_FLOAT"}}}, {"name": "PartitionedCall/model_8/tf.math.sigmoid_32/Sigmoid", "op": "Sigmoid", "input": ["PartitionedCall/model_8/tf.math.add_44/Add"], "attr": {"T": {"type": "DT_FLOAT"}}}, {"name": "PartitionedCall/model_8/tf.math.multiply_143/Mul", "op": "Mul", "input": ["PartitionedCall/model_8/tf.math.add_44/Add", "PartitionedCall/model_8/tf.math.sigmoid_32/Sigmoid"], "attr": {"T": {"type": "DT_FLOAT"}}}, {"name": "PartitionedCall/model_8/tf.nn.convolution_33/convolution", "op": "Conv2D", "input": ["PartitionedCall/model_8/tf.math.multiply_143/Mul", "13678"], "device": "/device:CPU:0", "attr": {"explicit_paddings": {"list": {}}, "strides": {"list": {"i": ["1", "1", "1", "1"]}}, "padding": {"s": "U0FNRQ=="}, "T": {"type": "DT_FLOAT"}, "dilations": {"list": {"i": ["1", "1", "1", "1"]}}, "data_format": {"s": "TkhXQw=="}, "use_cudnn_on_gpu": {"b": true}}}, {"name": "PartitionedCall/model_8/tf.math.add_45/Add", "op": "AddV2", "input": ["PartitionedCall/model_8/tf.nn.convolution_33/convolution", "13680"], "attr": {"T": {"type": "DT_FLOAT"}}}, {"name": "PartitionedCall/model_8/tf.math.sigmoid_33/Sigmoid", "op": "Sigmoid", "input": ["PartitionedCall/model_8/tf.math.add_45/Add"], "attr": {"T": {"type": "DT_FLOAT"}}}, {"name": "PartitionedCall/model_8/tf.math.multiply_147/Mul", "op": "Mul", "input": ["PartitionedCall/model_8/tf.math.add_45/Add", "PartitionedCall/model_8/tf.math.sigmoid_33/Sigmoid"], "attr": {"T": {"type": "DT_FLOAT"}}}, {"name": "PartitionedCall/model_8/tf.concat_8/concat", "op": "ConcatV2", "input": ["PartitionedCall/model_8/tf.strided_slice_10/StridedSlice", "PartitionedCall/model_8/tf.strided_slice_11/StridedSlice", "PartitionedCall/model_8/tf.math.multiply_147/Mul", "PartitionedCall/model_8/tf.concat_8/concat/axis"], "attr": {"T": {"type": "DT_FLOAT"}, "Tidx": {"type": "DT_INT32"}, "N": {"i": "3"}}}, {"name": "PartitionedCall/model_8/tf.nn.convolution_34/convolution", "op": "Conv2D", "input": ["PartitionedCall/model_8/tf.concat_8/concat", "13686"], "device": "/device:CPU:0", "attr": {"explicit_paddings": {"list": {}}, "padding": {"s": "U0FNRQ=="}, "dilations": {"list": {"i": ["1", "1", "1", "1"]}}, "data_format": {"s": "TkhXQw=="}, "use_cudnn_on_gpu": {"b": true}, "strides": {"list": {"i": ["1", "1", "1", "1"]}}, "T": {"type": "DT_FLOAT"}}}, {"name": "PartitionedCall/model_8/tf.math.add_46/Add", "op": "AddV2", "input": ["PartitionedCall/model_8/tf.nn.convolution_34/convolution", "13688"], "attr": {"T": {"type": "DT_FLOAT"}}}, {"name": "PartitionedCall/model_8/tf.math.sigmoid_34/Sigmoid", "op": "Sigmoid", "input": ["PartitionedCall/model_8/tf.math.add_46/Add"], "attr": {"T": {"type": "DT_FLOAT"}}}, {"name": "PartitionedCall/model_8/tf.math.multiply_151/Mul", "op": "Mul", "input": ["PartitionedCall/model_8/tf.math.add_46/Add", "PartitionedCall/model_8/tf.math.sigmoid_34/Sigmoid"], "attr": {"T": {"type": "DT_FLOAT"}}}, {"name": "PartitionedCall/model_8/tf.nn.convolution_36/convolution", "op": "Conv2D", "input": ["PartitionedCall/model_8/tf.math.multiply_151/Mul", "13762"], "device": "/device:CPU:0", "attr": {"dilations": {"list": {"i": ["1", "1", "1", "1"]}}, "explicit_paddings": {"list": {}}, "T": {"type": "DT_FLOAT"}, "data_format": {"s": "TkhXQw=="}, "use_cudnn_on_gpu": {"b": true}, "strides": {"list": {"i": ["1", "1", "1", "1"]}}, "padding": {"s": "U0FNRQ=="}}}, {"name": "PartitionedCall/model_8/tf.nn.convolution_37/convolution", "op": "Conv2D", "input": ["PartitionedCall/model_8/tf.math.multiply_151/Mul", "13748"], "device": "/device:CPU:0", "attr": {"strides": {"list": {"i": ["1", "1", "1", "1"]}}, "padding": {"s": "U0FNRQ=="}, "explicit_paddings": {"list": {}}, "T": {"type": "DT_FLOAT"}, "dilations": {"list": {"i": ["1", "1", "1", "1"]}}, "data_format": {"s": "TkhXQw=="}, "use_cudnn_on_gpu": {"b": true}}}, {"name": "PartitionedCall/model_8/tf.compat.v1.pad_5/Pad", "op": "Pad", "input": ["PartitionedCall/model_8/tf.math.multiply_151/Mul", "13690"], "attr": {"T": {"type": "DT_FLOAT"}, "Tpaddings": {"type": "DT_INT32"}}}, {"name": "PartitionedCall/model_8/tf.math.add_48/Add", "op": "AddV2", "input": ["PartitionedCall/model_8/tf.nn.convolution_36/convolution", "13772"], "attr": {"T": {"type": "DT_FLOAT"}}}, {"name": "PartitionedCall/model_8/tf.math.add_49/Add", "op": "AddV2", "input": ["PartitionedCall/model_8/tf.nn.convolution_37/convolution", "13752"], "attr": {"T": {"type": "DT_FLOAT"}}}, {"name": "PartitionedCall/model_8/tf.nn.convolution_35/convolution", "op": "Conv2D", "input": ["PartitionedCall/model_8/tf.compat.v1.pad_5/Pad", "13692"], "device": "/device:CPU:0", "attr": {"T": {"type": "DT_FLOAT"}, "padding": {"s": "VkFMSUQ="}, "explicit_paddings": {"list": {}}, "dilations": {"list": {"i": ["1", "1", "1", "1"]}}, "use_cudnn_on_gpu": {"b": true}, "strides": {"list": {"i": ["1", "2", "2", "1"]}}, "data_format": {"s": "TkhXQw=="}}}, {"name": "PartitionedCall/model_8/tf.math.sigmoid_36/Sigmoid", "op": "Sigmoid", "input": ["PartitionedCall/model_8/tf.math.add_48/Add"], "attr": {"T": {"type": "DT_FLOAT"}}}, {"name": "PartitionedCall/model_8/tf.math.sigmoid_37/Sigmoid", "op": "Sigmoid", "input": ["PartitionedCall/model_8/tf.math.add_49/Add"], "attr": {"T": {"type": "DT_FLOAT"}}}, {"name": "PartitionedCall/model_8/tf.math.add_47/Add", "op": "AddV2", "input": ["PartitionedCall/model_8/tf.nn.convolution_35/convolution", "13694"], "attr": {"T": {"type": "DT_FLOAT"}}}, {"name": "PartitionedCall/model_8/tf.math.multiply_159/Mul", "op": "Mul", "input": ["PartitionedCall/model_8/tf.math.add_48/Add", "PartitionedCall/model_8/tf.math.sigmoid_36/Sigmoid"], "attr": {"T": {"type": "DT_FLOAT"}}}, {"name": "PartitionedCall/model_8/tf.math.multiply_163/Mul", "op": "Mul", "input": ["PartitionedCall/model_8/tf.math.add_49/Add", "PartitionedCall/model_8/tf.math.sigmoid_37/Sigmoid"], "attr": {"T": {"type": "DT_FLOAT"}}}, {"name": "PartitionedCall/model_8/tf.math.sigmoid_35/Sigmoid", "op": "Sigmoid", "input": ["PartitionedCall/model_8/tf.math.add_47/Add"], "attr": {"T": {"type": "DT_FLOAT"}}}, {"name": "PartitionedCall/model_8/tf.nn.convolution_38/convolution", "op": "Conv2D", "input": ["PartitionedCall/model_8/tf.math.multiply_159/Mul", "13786"], "device": "/device:CPU:0", "attr": {"T": {"type": "DT_FLOAT"}, "explicit_paddings": {"list": {}}, "strides": {"list": {"i": ["1", "1", "1", "1"]}}, "padding": {"s": "U0FNRQ=="}, "dilations": {"list": {"i": ["1", "1", "1", "1"]}}, "data_format": {"s": "TkhXQw=="}, "use_cudnn_on_gpu": {"b": true}}}, {"name": "PartitionedCall/model_8/tf.nn.convolution_41/convolution", "op": "Conv2D", "input": ["PartitionedCall/model_8/tf.math.multiply_163/Mul", "13774"], "device": "/device:CPU:0", "attr": {"dilations": {"list": {"i": ["1", "1", "1", "1"]}}, "T": {"type": "DT_FLOAT"}, "data_format": {"s": "TkhXQw=="}, "use_cudnn_on_gpu": {"b": true}, "padding": {"s": "U0FNRQ=="}, "explicit_paddings": {"list": {}}, "strides": {"list": {"i": ["1", "1", "1", "1"]}}}}, {"name": "PartitionedCall/model_8/tf.math.multiply_155/Mul", "op": "Mul", "input": ["PartitionedCall/model_8/tf.math.add_47/Add", "PartitionedCall/model_8/tf.math.sigmoid_35/Sigmoid"], "attr": {"T": {"type": "DT_FLOAT"}}}, {"name": "PartitionedCall/model_8/tf.math.add_50/Add", "op": "AddV2", "input": ["PartitionedCall/model_8/tf.nn.convolution_38/convolution", "13796"], "attr": {"T": {"type": "DT_FLOAT"}}}, {"name": "PartitionedCall/model_8/tf.math.add_53/Add", "op": "AddV2", "input": ["PartitionedCall/model_8/tf.nn.convolution_41/convolution", "13776"], "attr": {"T": {"type": "DT_FLOAT"}}}, {"name": "PartitionedCall/model_8/tf.concat_9/concat", "op": "ConcatV2", "input": ["PartitionedCall/model_8/tf.math.multiply_155/Mul", "PartitionedCall/model_8/tf.math.multiply_135/Mul", "PartitionedCall/model_8/tf.concat_9/concat/axis"], "attr": {"T": {"type": "DT_FLOAT"}, "N": {"i": "2"}, "Tidx": {"type": "DT_INT32"}}}, {"name": "PartitionedCall/model_8/tf.math.sigmoid_38/Sigmoid", "op": "Sigmoid", "input": ["PartitionedCall/model_8/tf.math.add_50/Add"], "attr": {"T": {"type": "DT_FLOAT"}}}, {"name": "PartitionedCall/model_8/tf.math.sigmoid_39/Sigmoid", "op": "Sigmoid", "input": ["PartitionedCall/model_8/tf.math.add_53/Add"], "attr": {"T": {"type": "DT_FLOAT"}}}, {"name": "PartitionedCall/model_8/tf.nn.convolution_42/convolution", "op": "Conv2D", "input": ["PartitionedCall/model_8/tf.concat_9/concat", "13696"], "device": "/device:CPU:0", "attr": {"explicit_paddings": {"list": {}}, "strides": {"list": {"i": ["1", "1", "1", "1"]}}, "dilations": {"list": {"i": ["1", "1", "1", "1"]}}, "data_format": {"s": "TkhXQw=="}, "padding": {"s": "U0FNRQ=="}, "T": {"type": "DT_FLOAT"}, "use_cudnn_on_gpu": {"b": true}}}, {"name": "PartitionedCall/model_8/tf.math.multiply_167/Mul", "op": "Mul", "input": ["PartitionedCall/model_8/tf.math.add_50/Add", "PartitionedCall/model_8/tf.math.sigmoid_38/Sigmoid"], "attr": {"T": {"type": "DT_FLOAT"}}}, {"name": "PartitionedCall/model_8/tf.math.multiply_171/Mul", "op": "Mul", "input": ["PartitionedCall/model_8/tf.math.add_53/Add", "PartitionedCall/model_8/tf.math.sigmoid_39/Sigmoid"], "attr": {"T": {"type": "DT_FLOAT"}}}, {"name": "PartitionedCall/model_8/tf.math.add_54/Add", "op": "AddV2", "input": ["PartitionedCall/model_8/tf.nn.convolution_42/convolution", "13698"], "attr": {"T": {"type": "DT_FLOAT"}}}, {"name": "PartitionedCall/model_8/tf.nn.convolution_43/convolution", "op": "Conv2D", "input": ["PartitionedCall/model_8/tf.math.multiply_167/Mul", "13808"], "device": "/device:CPU:0", "attr": {"use_cudnn_on_gpu": {"b": true}, "strides": {"list": {"i": ["1", "1", "1", "1"]}}, "T": {"type": "DT_FLOAT"}, "padding": {"s": "U0FNRQ=="}, "dilations": {"list": {"i": ["1", "1", "1", "1"]}}, "explicit_paddings": {"list": {}}, "data_format": {"s": "TkhXQw=="}}}, {"name": "PartitionedCall/model_8/tf.nn.convolution_46/convolution", "op": "Conv2D", "input": ["PartitionedCall/model_8/tf.math.multiply_171/Mul", "13806"], "device": "/device:CPU:0", "attr": {"padding": {"s": "U0FNRQ=="}, "explicit_paddings": {"list": {}}, "dilations": {"list": {"i": ["1", "1", "1", "1"]}}, "data_format": {"s": "TkhXQw=="}, "use_cudnn_on_gpu": {"b": true}, "strides": {"list": {"i": ["1", "1", "1", "1"]}}, "T": {"type": "DT_FLOAT"}}}, {"name": "PartitionedCall/model_8/tf.math.sigmoid_40/Sigmoid", "op": "Sigmoid", "input": ["PartitionedCall/model_8/tf.math.add_54/Add"], "attr": {"T": {"type": "DT_FLOAT"}}}, {"name": "PartitionedCall/model_8/tf.math.add_55/Add", "op": "AddV2", "input": ["PartitionedCall/model_8/tf.nn.convolution_43/convolution", "13818"], "attr": {"T": {"type": "DT_FLOAT"}}}, {"name": "PartitionedCall/model_8/tf.math.add_58/Add", "op": "AddV2", "input": ["PartitionedCall/model_8/tf.nn.convolution_46/convolution", "13820"], "attr": {"T": {"type": "DT_FLOAT"}}}, {"name": "PartitionedCall/model_8/tf.math.multiply_175/Mul", "op": "Mul", "input": ["PartitionedCall/model_8/tf.math.add_54/Add", "PartitionedCall/model_8/tf.math.sigmoid_40/Sigmoid"], "attr": {"T": {"type": "DT_FLOAT"}}}, {"name": "PartitionedCall/model_8/tf.concat_10/concat", "op": "ConcatV2", "input": ["PartitionedCall/model_8/tf.math.add_55/Add", "PartitionedCall/model_8/tf.math.add_58/Add", "PartitionedCall/model_8/tf.concat_10/concat/axis"], "attr": {"N": {"i": "2"}, "T": {"type": "DT_FLOAT"}, "Tidx": {"type": "DT_INT32"}}}, {"name": "PartitionedCall/model_8/tf.strided_slice_12/StridedSlice", "op": "StridedSlice", "input": ["PartitionedCall/model_8/tf.math.multiply_175/Mul", "13712", "13714", "PartitionedCall/model_8/tf.strided_slice_12/ones_like"], "attr": {"shrink_axis_mask": {"i": "0"}, "T": {"type": "DT_FLOAT"}, "ellipsis_mask": {"i": "0"}, "end_mask": {"i": "7"}, "begin_mask": {"i": "15"}, "new_axis_mask": {"i": "0"}, "Index": {"type": "DT_INT64"}}}, {"name": "PartitionedCall/model_8/tf.strided_slice_13/StridedSlice", "op": "StridedSlice", "input": ["PartitionedCall/model_8/tf.math.multiply_175/Mul", "13700", "13702", "PartitionedCall/model_8/tf.strided_slice_13/ones_like"], "attr": {"end_mask": {"i": "7"}, "begin_mask": {"i": "7"}, "T": {"type": "DT_FLOAT"}, "ellipsis_mask": {"i": "0"}, "shrink_axis_mask": {"i": "0"}, "new_axis_mask": {"i": "0"}, "Index": {"type": "DT_INT64"}}}, {"name": "PartitionedCall/model_8/tf.compat.v1.transpose_6/transpose", "op": "Transpose", "input": ["PartitionedCall/model_8/tf.concat_10/concat", "PartitionedCall/model_8/tf.compat.v1.transpose_6/transpose/perm"], "attr": {"Tperm": {"type": "DT_INT32"}, "T": {"type": "DT_FLOAT"}}}, {"name": "PartitionedCall/model_8/tf.nn.convolution_47/convolution", "op": "Conv2D", "input": ["PartitionedCall/model_8/tf.strided_slice_13/StridedSlice", "13704"], "device": "/device:CPU:0", "attr": {"explicit_paddings": {"list": {}}, "dilations": {"list": {"i": ["1", "1", "1", "1"]}}, "data_format": {"s": "TkhXQw=="}, "use_cudnn_on_gpu": {"b": true}, "strides": {"list": {"i": ["1", "1", "1", "1"]}}, "T": {"type": "DT_FLOAT"}, "padding": {"s": "U0FNRQ=="}}}, {"name": "PartitionedCall/model_8/tf.reshape/Reshape", "op": "Reshape", "input": ["PartitionedCall/model_8/tf.compat.v1.transpose_6/transpose", "PartitionedCall/model_8/tf.reshape/Reshape/shape"], "attr": {"T": {"type": "DT_FLOAT"}, "Tshape": {"type": "DT_INT32"}}}, {"name": "PartitionedCall/model_8/tf.math.add_59/Add", "op": "AddV2", "input": ["PartitionedCall/model_8/tf.nn.convolution_47/convolution", "13706"], "attr": {"T": {"type": "DT_FLOAT"}}}, {"name": "PartitionedCall/model_8/tf.math.sigmoid_41/Sigmoid", "op": "Sigmoid", "input": ["PartitionedCall/model_8/tf.math.add_59/Add"], "attr": {"T": {"type": "DT_FLOAT"}}}, {"name": "PartitionedCall/model_8/tf.math.multiply_179/Mul", "op": "Mul", "input": ["PartitionedCall/model_8/tf.math.add_59/Add", "PartitionedCall/model_8/tf.math.sigmoid_41/Sigmoid"], "attr": {"T": {"type": "DT_FLOAT"}}}, {"name": "PartitionedCall/model_8/tf.nn.convolution_48/convolution", "op": "Conv2D", "input": ["PartitionedCall/model_8/tf.math.multiply_179/Mul", "13708"], "device": "/device:CPU:0", "attr": {"data_format": {"s": "TkhXQw=="}, "padding": {"s": "U0FNRQ=="}, "use_cudnn_on_gpu": {"b": true}, "strides": {"list": {"i": ["1", "1", "1", "1"]}}, "T": {"type": "DT_FLOAT"}, "explicit_paddings": {"list": {}}, "dilations": {"list": {"i": ["1", "1", "1", "1"]}}}}, {"name": "PartitionedCall/model_8/tf.math.add_60/Add", "op": "AddV2", "input": ["PartitionedCall/model_8/tf.nn.convolution_48/convolution", "13710"], "attr": {"T": {"type": "DT_FLOAT"}}}, {"name": "PartitionedCall/model_8/tf.math.sigmoid_42/Sigmoid", "op": "Sigmoid", "input": ["PartitionedCall/model_8/tf.math.add_60/Add"], "attr": {"T": {"type": "DT_FLOAT"}}}, {"name": "PartitionedCall/model_8/tf.math.multiply_183/Mul", "op": "Mul", "input": ["PartitionedCall/model_8/tf.math.add_60/Add", "PartitionedCall/model_8/tf.math.sigmoid_42/Sigmoid"], "attr": {"T": {"type": "DT_FLOAT"}}}, {"name": "PartitionedCall/model_8/tf.concat_11/concat", "op": "ConcatV2", "input": ["PartitionedCall/model_8/tf.strided_slice_12/StridedSlice", "PartitionedCall/model_8/tf.strided_slice_13/StridedSlice", "PartitionedCall/model_8/tf.math.multiply_183/Mul", "PartitionedCall/model_8/tf.concat_11/concat/axis"], "attr": {"N": {"i": "3"}, "Tidx": {"type": "DT_INT32"}, "T": {"type": "DT_FLOAT"}}}, {"name": "PartitionedCall/model_8/tf.nn.convolution_49/convolution", "op": "Conv2D", "input": ["PartitionedCall/model_8/tf.concat_11/concat", "13716"], "device": "/device:CPU:0", "attr": {"T": {"type": "DT_FLOAT"}, "padding": {"s": "U0FNRQ=="}, "dilations": {"list": {"i": ["1", "1", "1", "1"]}}, "explicit_paddings": {"list": {}}, "data_format": {"s": "TkhXQw=="}, "use_cudnn_on_gpu": {"b": true}, "strides": {"list": {"i": ["1", "1", "1", "1"]}}}}, {"name": "PartitionedCall/model_8/tf.math.add_61/Add", "op": "AddV2", "input": ["PartitionedCall/model_8/tf.nn.convolution_49/convolution", "13718"], "attr": {"T": {"type": "DT_FLOAT"}}}, {"name": "PartitionedCall/model_8/tf.math.sigmoid_43/Sigmoid", "op": "Sigmoid", "input": ["PartitionedCall/model_8/tf.math.add_61/Add"], "attr": {"T": {"type": "DT_FLOAT"}}}, {"name": "PartitionedCall/model_8/tf.math.multiply_187/Mul", "op": "Mul", "input": ["PartitionedCall/model_8/tf.math.add_61/Add", "PartitionedCall/model_8/tf.math.sigmoid_43/Sigmoid"], "attr": {"T": {"type": "DT_FLOAT"}}}, {"name": "PartitionedCall/model_8/tf.nn.convolution_51/convolution", "op": "Conv2D", "input": ["PartitionedCall/model_8/tf.math.multiply_187/Mul", "13760"], "device": "/device:CPU:0", "attr": {"use_cudnn_on_gpu": {"b": true}, "strides": {"list": {"i": ["1", "1", "1", "1"]}}, "padding": {"s": "U0FNRQ=="}, "explicit_paddings": {"list": {}}, "dilations": {"list": {"i": ["1", "1", "1", "1"]}}, "T": {"type": "DT_FLOAT"}, "data_format": {"s": "TkhXQw=="}}}, {"name": "PartitionedCall/model_8/tf.nn.convolution_52/convolution", "op": "Conv2D", "input": ["PartitionedCall/model_8/tf.math.multiply_187/Mul", "13758"], "device": "/device:CPU:0", "attr": {"strides": {"list": {"i": ["1", "1", "1", "1"]}}, "dilations": {"list": {"i": ["1", "1", "1", "1"]}}, "explicit_paddings": {"list": {}}, "data_format": {"s": "TkhXQw=="}, "use_cudnn_on_gpu": {"b": true}, "T": {"type": "DT_FLOAT"}, "padding": {"s": "U0FNRQ=="}}}, {"name": "PartitionedCall/model_8/tf.compat.v1.pad_6/Pad", "op": "Pad", "input": ["PartitionedCall/model_8/tf.math.multiply_187/Mul", "13720"], "attr": {"Tpaddings": {"type": "DT_INT32"}, "T": {"type": "DT_FLOAT"}}}, {"name": "PartitionedCall/model_8/tf.math.add_63/Add", "op": "AddV2", "input": ["PartitionedCall/model_8/tf.nn.convolution_51/convolution", "13770"], "attr": {"T": {"type": "DT_FLOAT"}}}, {"name": "PartitionedCall/model_8/tf.math.add_64/Add", "op": "AddV2", "input": ["PartitionedCall/model_8/tf.nn.convolution_52/convolution", "13768"], "attr": {"T": {"type": "DT_FLOAT"}}}, {"name": "PartitionedCall/model_8/tf.nn.convolution_50/convolution", "op": "Conv2D", "input": ["PartitionedCall/model_8/tf.compat.v1.pad_6/Pad", "13722"], "device": "/device:CPU:0", "attr": {"data_format": {"s": "TkhXQw=="}, "strides": {"list": {"i": ["1", "2", "2", "1"]}}, "T": {"type": "DT_FLOAT"}, "padding": {"s": "VkFMSUQ="}, "explicit_paddings": {"list": {}}, "dilations": {"list": {"i": ["1", "1", "1", "1"]}}, "use_cudnn_on_gpu": {"b": true}}}, {"name": "PartitionedCall/model_8/tf.math.sigmoid_45/Sigmoid", "op": "Sigmoid", "input": ["PartitionedCall/model_8/tf.math.add_63/Add"], "attr": {"T": {"type": "DT_FLOAT"}}}, {"name": "PartitionedCall/model_8/tf.math.sigmoid_46/Sigmoid", "op": "Sigmoid", "input": ["PartitionedCall/model_8/tf.math.add_64/Add"], "attr": {"T": {"type": "DT_FLOAT"}}}, {"name": "PartitionedCall/model_8/tf.math.add_62/Add", "op": "AddV2", "input": ["PartitionedCall/model_8/tf.nn.convolution_50/convolution", "13724"], "attr": {"T": {"type": "DT_FLOAT"}}}, {"name": "PartitionedCall/model_8/tf.math.multiply_195/Mul", "op": "Mul", "input": ["PartitionedCall/model_8/tf.math.add_63/Add", "PartitionedCall/model_8/tf.math.sigmoid_45/Sigmoid"], "attr": {"T": {"type": "DT_FLOAT"}}}, {"name": "PartitionedCall/model_8/tf.math.multiply_199/Mul", "op": "Mul", "input": ["PartitionedCall/model_8/tf.math.add_64/Add", "PartitionedCall/model_8/tf.math.sigmoid_46/Sigmoid"], "attr": {"T": {"type": "DT_FLOAT"}}}, {"name": "PartitionedCall/model_8/tf.math.sigmoid_44/Sigmoid", "op": "Sigmoid", "input": ["PartitionedCall/model_8/tf.math.add_62/Add"], "attr": {"T": {"type": "DT_FLOAT"}}}, {"name": "PartitionedCall/model_8/tf.nn.convolution_53/convolution", "op": "Conv2D", "input": ["PartitionedCall/model_8/tf.math.multiply_195/Mul", "13784"], "device": "/device:CPU:0", "attr": {"explicit_paddings": {"list": {}}, "T": {"type": "DT_FLOAT"}, "padding": {"s": "U0FNRQ=="}, "data_format": {"s": "TkhXQw=="}, "strides": {"list": {"i": ["1", "1", "1", "1"]}}, "use_cudnn_on_gpu": {"b": true}, "dilations": {"list": {"i": ["1", "1", "1", "1"]}}}}, {"name": "PartitionedCall/model_8/tf.nn.convolution_54/convolution", "op": "Conv2D", "input": ["PartitionedCall/model_8/tf.math.multiply_199/Mul", "13782"], "device": "/device:CPU:0", "attr": {"data_format": {"s": "TkhXQw=="}, "use_cudnn_on_gpu": {"b": true}, "T": {"type": "DT_FLOAT"}, "strides": {"list": {"i": ["1", "1", "1", "1"]}}, "padding": {"s": "U0FNRQ=="}, "explicit_paddings": {"list": {}}, "dilations": {"list": {"i": ["1", "1", "1", "1"]}}}}, {"name": "PartitionedCall/model_8/tf.math.multiply_191/Mul", "op": "Mul", "input": ["PartitionedCall/model_8/tf.math.add_62/Add", "PartitionedCall/model_8/tf.math.sigmoid_44/Sigmoid"], "attr": {"T": {"type": "DT_FLOAT"}}}, {"name": "PartitionedCall/model_8/tf.math.add_65/Add", "op": "AddV2", "input": ["PartitionedCall/model_8/tf.nn.convolution_53/convolution", "13794"], "attr": {"T": {"type": "DT_FLOAT"}}}, {"name": "PartitionedCall/model_8/tf.math.add_66/Add", "op": "AddV2", "input": ["PartitionedCall/model_8/tf.nn.convolution_54/convolution", "13792"], "attr": {"T": {"type": "DT_FLOAT"}}}, {"name": "PartitionedCall/model_8/tf.concat_12/concat", "op": "ConcatV2", "input": ["PartitionedCall/model_8/tf.math.multiply_191/Mul", "PartitionedCall/model_8/tf.math.multiply_119/Mul", "PartitionedCall/model_8/tf.concat_12/concat/axis"], "attr": {"T": {"type": "DT_FLOAT"}, "N": {"i": "2"}, "Tidx": {"type": "DT_INT32"}}}, {"name": "PartitionedCall/model_8/tf.math.sigmoid_47/Sigmoid", "op": "Sigmoid", "input": ["PartitionedCall/model_8/tf.math.add_65/Add"], "attr": {"T": {"type": "DT_FLOAT"}}}, {"name": "PartitionedCall/model_8/tf.math.sigmoid_48/Sigmoid", "op": "Sigmoid", "input": ["PartitionedCall/model_8/tf.math.add_66/Add"], "attr": {"T": {"type": "DT_FLOAT"}}}, {"name": "PartitionedCall/model_8/tf.nn.convolution_55/convolution", "op": "Conv2D", "input": ["PartitionedCall/model_8/tf.concat_12/concat", "13726"], "device": "/device:CPU:0", "attr": {"T": {"type": "DT_FLOAT"}, "explicit_paddings": {"list": {}}, "strides": {"list": {"i": ["1", "1", "1", "1"]}}, "padding": {"s": "U0FNRQ=="}, "dilations": {"list": {"i": ["1", "1", "1", "1"]}}, "use_cudnn_on_gpu": {"b": true}, "data_format": {"s": "TkhXQw=="}}}, {"name": "PartitionedCall/model_8/tf.math.multiply_203/Mul", "op": "Mul", "input": ["PartitionedCall/model_8/tf.math.add_65/Add", "PartitionedCall/model_8/tf.math.sigmoid_47/Sigmoid"], "attr": {"T": {"type": "DT_FLOAT"}}}, {"name": "PartitionedCall/model_8/tf.math.multiply_207/Mul", "op": "Mul", "input": ["PartitionedCall/model_8/tf.math.add_66/Add", "PartitionedCall/model_8/tf.math.sigmoid_48/Sigmoid"], "attr": {"T": {"type": "DT_FLOAT"}}}, {"name": "PartitionedCall/model_8/tf.math.add_67/Add", "op": "AddV2", "input": ["PartitionedCall/model_8/tf.nn.convolution_55/convolution", "13728"], "attr": {"T": {"type": "DT_FLOAT"}}}, {"name": "PartitionedCall/model_8/tf.nn.convolution_56/convolution", "op": "Conv2D", "input": ["PartitionedCall/model_8/tf.math.multiply_203/Mul", "13804"], "device": "/device:CPU:0", "attr": {"use_cudnn_on_gpu": {"b": true}, "strides": {"list": {"i": ["1", "1", "1", "1"]}}, "T": {"type": "DT_FLOAT"}, "padding": {"s": "U0FNRQ=="}, "dilations": {"list": {"i": ["1", "1", "1", "1"]}}, "data_format": {"s": "TkhXQw=="}, "explicit_paddings": {"list": {}}}}, {"name": "PartitionedCall/model_8/tf.nn.convolution_57/convolution", "op": "Conv2D", "input": ["PartitionedCall/model_8/tf.math.multiply_207/Mul", "13802"], "device": "/device:CPU:0", "attr": {"explicit_paddings": {"list": {}}, "strides": {"list": {"i": ["1", "1", "1", "1"]}}, "dilations": {"list": {"i": ["1", "1", "1", "1"]}}, "T": {"type": "DT_FLOAT"}, "use_cudnn_on_gpu": {"b": true}, "data_format": {"s": "TkhXQw=="}, "padding": {"s": "U0FNRQ=="}}}, {"name": "PartitionedCall/model_8/tf.math.sigmoid_49/Sigmoid", "op": "Sigmoid", "input": ["PartitionedCall/model_8/tf.math.add_67/Add"], "attr": {"T": {"type": "DT_FLOAT"}}}, {"name": "PartitionedCall/model_8/tf.math.add_68/Add", "op": "AddV2", "input": ["PartitionedCall/model_8/tf.nn.convolution_56/convolution", "13814"], "attr": {"T": {"type": "DT_FLOAT"}}}, {"name": "PartitionedCall/model_8/tf.math.add_69/Add", "op": "AddV2", "input": ["PartitionedCall/model_8/tf.nn.convolution_57/convolution", "13816"], "attr": {"T": {"type": "DT_FLOAT"}}}, {"name": "PartitionedCall/model_8/tf.math.multiply_211/Mul", "op": "Mul", "input": ["PartitionedCall/model_8/tf.math.add_67/Add", "PartitionedCall/model_8/tf.math.sigmoid_49/Sigmoid"], "attr": {"T": {"type": "DT_FLOAT"}}}, {"name": "PartitionedCall/model_8/tf.concat_13/concat", "op": "ConcatV2", "input": ["PartitionedCall/model_8/tf.math.add_68/Add", "PartitionedCall/model_8/tf.math.add_69/Add", "PartitionedCall/model_8/tf.concat_13/concat/axis"], "attr": {"Tidx": {"type": "DT_INT32"}, "T": {"type": "DT_FLOAT"}, "N": {"i": "2"}}}, {"name": "PartitionedCall/model_8/tf.strided_slice_14/StridedSlice", "op": "StridedSlice", "input": ["PartitionedCall/model_8/tf.math.multiply_211/Mul", "13742", "13744", "PartitionedCall/model_8/tf.strided_slice_14/ones_like"], "attr": {"ellipsis_mask": {"i": "0"}, "begin_mask": {"i": "15"}, "end_mask": {"i": "7"}, "T": {"type": "DT_FLOAT"}, "Index": {"type": "DT_INT64"}, "new_axis_mask": {"i": "0"}, "shrink_axis_mask": {"i": "0"}}}, {"name": "PartitionedCall/model_8/tf.strided_slice_15/StridedSlice", "op": "StridedSlice", "input": ["PartitionedCall/model_8/tf.math.multiply_211/Mul", "13730", "13732", "PartitionedCall/model_8/tf.strided_slice_15/ones_like"], "attr": {"shrink_axis_mask": {"i": "0"}, "Index": {"type": "DT_INT64"}, "begin_mask": {"i": "7"}, "T": {"type": "DT_FLOAT"}, "ellipsis_mask": {"i": "0"}, "end_mask": {"i": "7"}, "new_axis_mask": {"i": "0"}}}, {"name": "PartitionedCall/model_8/tf.compat.v1.transpose_7/transpose", "op": "Transpose", "input": ["PartitionedCall/model_8/tf.concat_13/concat", "PartitionedCall/model_8/tf.compat.v1.transpose_7/transpose/perm"], "attr": {"Tperm": {"type": "DT_INT32"}, "T": {"type": "DT_FLOAT"}}}, {"name": "PartitionedCall/model_8/tf.nn.convolution_58/convolution", "op": "Conv2D", "input": ["PartitionedCall/model_8/tf.strided_slice_15/StridedSlice", "13734"], "device": "/device:CPU:0", "attr": {"explicit_paddings": {"list": {}}, "strides": {"list": {"i": ["1", "1", "1", "1"]}}, "dilations": {"list": {"i": ["1", "1", "1", "1"]}}, "T": {"type": "DT_FLOAT"}, "data_format": {"s": "TkhXQw=="}, "use_cudnn_on_gpu": {"b": true}, "padding": {"s": "U0FNRQ=="}}}, {"name": "PartitionedCall/model_8/tf.reshape_1/Reshape", "op": "Reshape", "input": ["PartitionedCall/model_8/tf.compat.v1.transpose_7/transpose", "PartitionedCall/model_8/tf.reshape_1/Reshape/shape"], "attr": {"T": {"type": "DT_FLOAT"}, "Tshape": {"type": "DT_INT32"}}}, {"name": "PartitionedCall/model_8/tf.math.add_70/Add", "op": "AddV2", "input": ["PartitionedCall/model_8/tf.nn.convolution_58/convolution", "13736"], "attr": {"T": {"type": "DT_FLOAT"}}}, {"name": "PartitionedCall/model_8/tf.math.sigmoid_50/Sigmoid", "op": "Sigmoid", "input": ["PartitionedCall/model_8/tf.math.add_70/Add"], "attr": {"T": {"type": "DT_FLOAT"}}}, {"name": "PartitionedCall/model_8/tf.math.multiply_215/Mul", "op": "Mul", "input": ["PartitionedCall/model_8/tf.math.add_70/Add", "PartitionedCall/model_8/tf.math.sigmoid_50/Sigmoid"], "attr": {"T": {"type": "DT_FLOAT"}}}, {"name": "PartitionedCall/model_8/tf.nn.convolution_59/convolution", "op": "Conv2D", "input": ["PartitionedCall/model_8/tf.math.multiply_215/Mul", "13738"], "device": "/device:CPU:0", "attr": {"explicit_paddings": {"list": {}}, "dilations": {"list": {"i": ["1", "1", "1", "1"]}}, "T": {"type": "DT_FLOAT"}, "strides": {"list": {"i": ["1", "1", "1", "1"]}}, "padding": {"s": "U0FNRQ=="}, "use_cudnn_on_gpu": {"b": true}, "data_format": {"s": "TkhXQw=="}}}, {"name": "PartitionedCall/model_8/tf.math.add_71/Add", "op": "AddV2", "input": ["PartitionedCall/model_8/tf.nn.convolution_59/convolution", "13740"], "attr": {"T": {"type": "DT_FLOAT"}}}, {"name": "PartitionedCall/model_8/tf.math.sigmoid_51/Sigmoid", "op": "Sigmoid", "input": ["PartitionedCall/model_8/tf.math.add_71/Add"], "attr": {"T": {"type": "DT_FLOAT"}}}, {"name": "PartitionedCall/model_8/tf.math.multiply_219/Mul", "op": "Mul", "input": ["PartitionedCall/model_8/tf.math.add_71/Add", "PartitionedCall/model_8/tf.math.sigmoid_51/Sigmoid"], "attr": {"T": {"type": "DT_FLOAT"}}}, {"name": "PartitionedCall/model_8/tf.concat_14/concat", "op": "ConcatV2", "input": ["PartitionedCall/model_8/tf.strided_slice_14/StridedSlice", "PartitionedCall/model_8/tf.strided_slice_15/StridedSlice", "PartitionedCall/model_8/tf.math.multiply_219/Mul", "PartitionedCall/model_8/tf.concat_14/concat/axis"], "attr": {"N": {"i": "3"}, "T": {"type": "DT_FLOAT"}, "Tidx": {"type": "DT_INT32"}}}, {"name": "PartitionedCall/model_8/tf.nn.convolution_60/convolution", "op": "Conv2D", "input": ["PartitionedCall/model_8/tf.concat_14/concat", "13746"], "device": "/device:CPU:0", "attr": {"padding": {"s": "U0FNRQ=="}, "explicit_paddings": {"list": {}}, "dilations": {"list": {"i": ["1", "1", "1", "1"]}}, "T": {"type": "DT_FLOAT"}, "strides": {"list": {"i": ["1", "1", "1", "1"]}}, "data_format": {"s": "TkhXQw=="}, "use_cudnn_on_gpu": {"b": true}}}, {"name": "PartitionedCall/model_8/tf.math.add_72/Add", "op": "AddV2", "input": ["PartitionedCall/model_8/tf.nn.convolution_60/convolution", "13750"], "attr": {"T": {"type": "DT_FLOAT"}}}, {"name": "PartitionedCall/model_8/tf.math.sigmoid_52/Sigmoid", "op": "Sigmoid", "input": ["PartitionedCall/model_8/tf.math.add_72/Add"], "attr": {"T": {"type": "DT_FLOAT"}}}, {"name": "PartitionedCall/model_8/tf.math.multiply_223/Mul", "op": "Mul", "input": ["PartitionedCall/model_8/tf.math.add_72/Add", "PartitionedCall/model_8/tf.math.sigmoid_52/Sigmoid"], "attr": {"T": {"type": "DT_FLOAT"}}}, {"name": "PartitionedCall/model_8/tf.nn.convolution_61/convolution", "op": "Conv2D", "input": ["PartitionedCall/model_8/tf.math.multiply_223/Mul", "13756"], "device": "/device:CPU:0", "attr": {"use_cudnn_on_gpu": {"b": true}, "data_format": {"s": "TkhXQw=="}, "strides": {"list": {"i": ["1", "1", "1", "1"]}}, "T": {"type": "DT_FLOAT"}, "explicit_paddings": {"list": {}}, "padding": {"s": "U0FNRQ=="}, "dilations": {"list": {"i": ["1", "1", "1", "1"]}}}}, {"name": "PartitionedCall/model_8/tf.nn.convolution_62/convolution", "op": "Conv2D", "input": ["PartitionedCall/model_8/tf.math.multiply_223/Mul", "13754"], "device": "/device:CPU:0", "attr": {"data_format": {"s": "TkhXQw=="}, "use_cudnn_on_gpu": {"b": true}, "T": {"type": "DT_FLOAT"}, "explicit_paddings": {"list": {}}, "strides": {"list": {"i": ["1", "1", "1", "1"]}}, "dilations": {"list": {"i": ["1", "1", "1", "1"]}}, "padding": {"s": "U0FNRQ=="}}}, {"name": "PartitionedCall/model_8/tf.math.add_73/Add", "op": "AddV2", "input": ["PartitionedCall/model_8/tf.nn.convolution_61/convolution", "13766"], "attr": {"T": {"type": "DT_FLOAT"}}}, {"name": "PartitionedCall/model_8/tf.math.add_74/Add", "op": "AddV2", "input": ["PartitionedCall/model_8/tf.nn.convolution_62/convolution", "13764"], "attr": {"T": {"type": "DT_FLOAT"}}}, {"name": "PartitionedCall/model_8/tf.math.sigmoid_53/Sigmoid", "op": "Sigmoid", "input": ["PartitionedCall/model_8/tf.math.add_73/Add"], "attr": {"T": {"type": "DT_FLOAT"}}}, {"name": "PartitionedCall/model_8/tf.math.sigmoid_54/Sigmoid", "op": "Sigmoid", "input": ["PartitionedCall/model_8/tf.math.add_74/Add"], "attr": {"T": {"type": "DT_FLOAT"}}}, {"name": "PartitionedCall/model_8/tf.math.multiply_227/Mul", "op": "Mul", "input": ["PartitionedCall/model_8/tf.math.add_73/Add", "PartitionedCall/model_8/tf.math.sigmoid_53/Sigmoid"], "attr": {"T": {"type": "DT_FLOAT"}}}, {"name": "PartitionedCall/model_8/tf.math.multiply_231/Mul", "op": "Mul", "input": ["PartitionedCall/model_8/tf.math.add_74/Add", "PartitionedCall/model_8/tf.math.sigmoid_54/Sigmoid"], "attr": {"T": {"type": "DT_FLOAT"}}}, {"name": "PartitionedCall/model_8/tf.nn.convolution_63/convolution", "op": "Conv2D", "input": ["PartitionedCall/model_8/tf.math.multiply_227/Mul", "13780"], "device": "/device:CPU:0", "attr": {"data_format": {"s": "TkhXQw=="}, "use_cudnn_on_gpu": {"b": true}, "T": {"type": "DT_FLOAT"}, "strides": {"list": {"i": ["1", "1", "1", "1"]}}, "explicit_paddings": {"list": {}}, "padding": {"s": "U0FNRQ=="}, "dilations": {"list": {"i": ["1", "1", "1", "1"]}}}}, {"name": "PartitionedCall/model_8/tf.nn.convolution_64/convolution", "op": "Conv2D", "input": ["PartitionedCall/model_8/tf.math.multiply_231/Mul", "13778"], "device": "/device:CPU:0", "attr": {"dilations": {"list": {"i": ["1", "1", "1", "1"]}}, "padding": {"s": "U0FNRQ=="}, "use_cudnn_on_gpu": {"b": true}, "data_format": {"s": "TkhXQw=="}, "strides": {"list": {"i": ["1", "1", "1", "1"]}}, "explicit_paddings": {"list": {}}, "T": {"type": "DT_FLOAT"}}}, {"name": "PartitionedCall/model_8/tf.math.add_75/Add", "op": "AddV2", "input": ["PartitionedCall/model_8/tf.nn.convolution_63/convolution", "13790"], "attr": {"T": {"type": "DT_FLOAT"}}}, {"name": "PartitionedCall/model_8/tf.math.add_76/Add", "op": "AddV2", "input": ["PartitionedCall/model_8/tf.nn.convolution_64/convolution", "13788"], "attr": {"T": {"type": "DT_FLOAT"}}}, {"name": "PartitionedCall/model_8/tf.math.sigmoid_55/Sigmoid", "op": "Sigmoid", "input": ["PartitionedCall/model_8/tf.math.add_75/Add"], "attr": {"T": {"type": "DT_FLOAT"}}}, {"name": "PartitionedCall/model_8/tf.math.sigmoid_56/Sigmoid", "op": "Sigmoid", "input": ["PartitionedCall/model_8/tf.math.add_76/Add"], "attr": {"T": {"type": "DT_FLOAT"}}}, {"name": "PartitionedCall/model_8/tf.math.multiply_235/Mul", "op": "Mul", "input": ["PartitionedCall/model_8/tf.math.add_75/Add", "PartitionedCall/model_8/tf.math.sigmoid_55/Sigmoid"], "attr": {"T": {"type": "DT_FLOAT"}}}, {"name": "PartitionedCall/model_8/tf.math.multiply_239/Mul", "op": "Mul", "input": ["PartitionedCall/model_8/tf.math.add_76/Add", "PartitionedCall/model_8/tf.math.sigmoid_56/Sigmoid"], "attr": {"T": {"type": "DT_FLOAT"}}}, {"name": "PartitionedCall/model_8/tf.nn.convolution_65/convolution", "op": "Conv2D", "input": ["PartitionedCall/model_8/tf.math.multiply_235/Mul", "13800"], "device": "/device:CPU:0", "attr": {"use_cudnn_on_gpu": {"b": true}, "T": {"type": "DT_FLOAT"}, "strides": {"list": {"i": ["1", "1", "1", "1"]}}, "dilations": {"list": {"i": ["1", "1", "1", "1"]}}, "explicit_paddings": {"list": {}}, "padding": {"s": "U0FNRQ=="}, "data_format": {"s": "TkhXQw=="}}}, {"name": "PartitionedCall/model_8/tf.nn.convolution_66/convolution", "op": "Conv2D", "input": ["PartitionedCall/model_8/tf.math.multiply_239/Mul", "13798"], "device": "/device:CPU:0", "attr": {"padding": {"s": "U0FNRQ=="}, "explicit_paddings": {"list": {}}, "dilations": {"list": {"i": ["1", "1", "1", "1"]}}, "data_format": {"s": "TkhXQw=="}, "use_cudnn_on_gpu": {"b": true}, "T": {"type": "DT_FLOAT"}, "strides": {"list": {"i": ["1", "1", "1", "1"]}}}}, {"name": "PartitionedCall/model_8/tf.math.add_77/Add", "op": "AddV2", "input": ["PartitionedCall/model_8/tf.nn.convolution_65/convolution", "13810"], "attr": {"T": {"type": "DT_FLOAT"}}}, {"name": "PartitionedCall/model_8/tf.math.add_78/Add", "op": "AddV2", "input": ["PartitionedCall/model_8/tf.nn.convolution_66/convolution", "13812"], "attr": {"T": {"type": "DT_FLOAT"}}}, {"name": "PartitionedCall/model_8/tf.concat_15/concat", "op": "ConcatV2", "input": ["PartitionedCall/model_8/tf.math.add_77/Add", "PartitionedCall/model_8/tf.math.add_78/Add", "PartitionedCall/model_8/tf.concat_15/concat/axis"], "attr": {"T": {"type": "DT_FLOAT"}, "Tidx": {"type": "DT_INT32"}, "N": {"i": "2"}}}, {"name": "PartitionedCall/model_8/tf.compat.v1.transpose_8/transpose", "op": "Transpose", "input": ["PartitionedCall/model_8/tf.concat_15/concat", "PartitionedCall/model_8/tf.compat.v1.transpose_8/transpose/perm"], "attr": {"T": {"type": "DT_FLOAT"}, "Tperm": {"type": "DT_INT32"}}}, {"name": "PartitionedCall/model_8/tf.reshape_2/Reshape", "op": "Reshape", "input": ["PartitionedCall/model_8/tf.compat.v1.transpose_8/transpose", "PartitionedCall/model_8/tf.reshape_2/Reshape/shape"], "attr": {"Tshape": {"type": "DT_INT32"}, "T": {"type": "DT_FLOAT"}}}, {"name": "PartitionedCall/model_8/tf.concat_16/concat", "op": "ConcatV2", "input": ["PartitionedCall/model_8/tf.reshape/Reshape", "PartitionedCall/model_8/tf.reshape_1/Reshape", "PartitionedCall/model_8/tf.reshape_2/Reshape", "PartitionedCall/model_8/tf.concat_16/concat/axis"], "attr": {"N": {"i": "3"}, "Tidx": {"type": "DT_INT32"}, "T": {"type": "DT_FLOAT"}}}, {"name": "PartitionedCall/model_8/tf.strided_slice_16/StridedSlice", "op": "StridedSlice", "input": ["PartitionedCall/model_8/tf.concat_16/concat", "13822", "13824", "PartitionedCall/model_8/tf.strided_slice_16/StridedSlice/strides"], "attr": {"new_axis_mask": {"i": "0"}, "begin_mask": {"i": "7"}, "T": {"type": "DT_FLOAT"}, "end_mask": {"i": "5"}, "Index": {"type": "DT_INT64"}, "shrink_axis_mask": {"i": "0"}, "ellipsis_mask": {"i": "0"}}}, {"name": "PartitionedCall/model_8/tf.strided_slice_17/StridedSlice", "op": "StridedSlice", "input": ["PartitionedCall/model_8/tf.concat_16/concat", "13842", "13844", "PartitionedCall/model_8/tf.strided_slice_17/StridedSlice/strides"], "attr": {"T": {"type": "DT_FLOAT"}, "new_axis_mask": {"i": "0"}, "begin_mask": {"i": "5"}, "ellipsis_mask": {"i": "0"}, "end_mask": {"i": "5"}, "shrink_axis_mask": {"i": "0"}, "Index": {"type": "DT_INT64"}}}, {"name": "PartitionedCall/model_8/tf.reshape_3/Reshape", "op": "Reshape", "input": ["PartitionedCall/model_8/tf.strided_slice_16/StridedSlice", "PartitionedCall/model_8/tf.reshape_3/Reshape/shape"], "attr": {"Tshape": {"type": "DT_INT32"}, "T": {"type": "DT_FLOAT"}}}, {"name": "PartitionedCall/model_8/tf.math.sigmoid_57/Sigmoid", "op": "Sigmoid", "input": ["PartitionedCall/model_8/tf.strided_slice_17/StridedSlice"], "attr": {"T": {"type": "DT_FLOAT"}}}, {"name": "PartitionedCall/model_8/tf.compat.v1.transpose_10/transpose", "op": "Transpose", "input": ["PartitionedCall/model_8/tf.reshape_3/Reshape", "PartitionedCall/model_8/tf.compat.v1.transpose_10/transpose/perm"], "attr": {"T": {"type": "DT_FLOAT"}, "Tperm": {"type": "DT_INT32"}}}, {"name": "PartitionedCall/model_8/tf.compat.v1.transpose_11/transpose", "op": "Transpose", "input": ["PartitionedCall/model_8/tf.compat.v1.transpose_10/transpose", "PartitionedCall/model_8/tf.compat.v1.transpose_11/transpose/perm"], "attr": {"T": {"type": "DT_FLOAT"}, "Tperm": {"type": "DT_INT32"}}}, {"name": "PartitionedCall/model_8/tf.nn.softmax_1/Softmax", "op": "Softmax", "input": ["PartitionedCall/model_8/tf.compat.v1.transpose_11/transpose"], "attr": {"T": {"type": "DT_FLOAT"}}}, {"name": "PartitionedCall/model_8/tf.nn.convolution_67/convolution", "op": "Conv2D", "input": ["PartitionedCall/model_8/tf.nn.softmax_1/Softmax", "13826"], "device": "/device:CPU:0", "attr": {"explicit_paddings": {"list": {}}, "dilations": {"list": {"i": ["1", "1", "1", "1"]}}, "padding": {"s": "U0FNRQ=="}, "data_format": {"s": "TkhXQw=="}, "use_cudnn_on_gpu": {"b": true}, "T": {"type": "DT_FLOAT"}, "strides": {"list": {"i": ["1", "1", "1", "1"]}}}}, {"name": "PartitionedCall/model_8/tf.compat.v1.transpose_14/transpose", "op": "Transpose", "input": ["PartitionedCall/model_8/tf.nn.convolution_67/convolution", "PartitionedCall/model_8/tf.compat.v1.transpose_14/transpose/perm"], "attr": {"Tperm": {"type": "DT_INT32"}, "T": {"type": "DT_FLOAT"}}}, {"name": "PartitionedCall/model_8/tf.reshape_4/Reshape", "op": "Reshape", "input": ["PartitionedCall/model_8/tf.compat.v1.transpose_14/transpose", "PartitionedCall/model_8/tf.reshape_4/Reshape/shape"], "attr": {"T": {"type": "DT_FLOAT"}, "Tshape": {"type": "DT_INT32"}}}, {"name": "PartitionedCall/model_8/tf.strided_slice_19/StridedSlice", "op": "StridedSlice", "input": ["PartitionedCall/model_8/tf.reshape_4/Reshape", "13828", "13830", "PartitionedCall/model_8/tf.strided_slice_19/ones_like"], "attr": {"shrink_axis_mask": {"i": "0"}, "T": {"type": "DT_FLOAT"}, "ellipsis_mask": {"i": "0"}, "end_mask": {"i": "5"}, "begin_mask": {"i": "5"}, "new_axis_mask": {"i": "0"}, "Index": {"type": "DT_INT64"}}}, {"name": "PartitionedCall/model_8/tf.strided_slice_18/StridedSlice", "op": "StridedSlice", "input": ["PartitionedCall/model_8/tf.reshape_4/Reshape", "13832", "13834", "PartitionedCall/model_8/tf.strided_slice_18/ones_like"], "attr": {"begin_mask": {"i": "7"}, "Index": {"type": "DT_INT64"}, "ellipsis_mask": {"i": "0"}, "new_axis_mask": {"i": "0"}, "shrink_axis_mask": {"i": "0"}, "end_mask": {"i": "5"}, "T": {"type": "DT_FLOAT"}}}, {"name": "PartitionedCall/model_8/tf.math.add_79/Add", "op": "AddV2", "input": ["13836", "PartitionedCall/model_8/tf.strided_slice_19/StridedSlice"], "attr": {"T": {"type": "DT_FLOAT"}}}, {"name": "PartitionedCall/model_8/tf.math.subtract/Sub", "op": "Sub", "input": ["13838", "PartitionedCall/model_8/tf.strided_slice_18/StridedSlice"], "attr": {"T": {"type": "DT_FLOAT"}}}, {"name": "PartitionedCall/model_8/tf.math.add_80/Add", "op": "AddV2", "input": ["PartitionedCall/model_8/tf.math.subtract/Sub", "PartitionedCall/model_8/tf.math.add_79/Add"], "attr": {"T": {"type": "DT_FLOAT"}}}, {"name": "PartitionedCall/model_8/tf.math.subtract_1/Sub", "op": "Sub", "input": ["PartitionedCall/model_8/tf.math.add_79/Add", "PartitionedCall/model_8/tf.math.subtract/Sub"], "attr": {"T": {"type": "DT_FLOAT"}}}, {"name": "PartitionedCall/model_8/tf.math.divide/truediv", "op": "Mul", "input": ["PartitionedCall/model_8/tf.math.add_80/Add", "ConstantFolding/PartitionedCall/model_8/tf.math.divide/truediv_recip"], "attr": {"T": {"type": "DT_FLOAT"}}}, {"name": "PartitionedCall/model_8/tf.concat_17/concat", "op": "ConcatV2", "input": ["PartitionedCall/model_8/tf.math.divide/truediv", "PartitionedCall/model_8/tf.math.subtract_1/Sub", "PartitionedCall/model_8/tf.concat_17/concat/axis"], "attr": {"N": {"i": "2"}, "T": {"type": "DT_FLOAT"}, "Tidx": {"type": "DT_INT32"}}}, {"name": "PartitionedCall/model_8/tf.math.multiply_252/Mul", "op": "Mul", "input": ["PartitionedCall/model_8/tf.concat_17/concat", "PartitionedCall/model_8/tf.math.multiply_252/Mul/y"], "attr": {"T": {"type": "DT_FLOAT"}}}, {"name": "PartitionedCall/model_8/output0/concat", "op": "ConcatV2", "input": ["PartitionedCall/model_8/tf.math.multiply_252/Mul", "PartitionedCall/model_8/tf.math.sigmoid_57/Sigmoid", "PartitionedCall/model_8/output0/concat/axis"], "attr": {"T": {"type": "DT_FLOAT"}, "N": {"i": "2"}, "Tidx": {"type": "DT_INT32"}}}, {"name": "Identity", "op": "Identity", "input": ["PartitionedCall/model_8/output0/concat"], "attr": {"T": {"type": "DT_FLOAT"}}}], "library": {}, "versions": {"producer": 1286}}, "weightsManifest": [{"paths": ["group1-shard1of4.bin", "group1-shard2of4.bin", "group1-shard3of4.bin", "group1-shard4of4.bin"], "weights": [{"name": "ConstantFolding/PartitionedCall/model_8/tf.math.divide/truediv_recip", "shape": [1, 1, 1], "dtype": "float32"}, {"name": "13836", "shape": [1, 2, 8400], "dtype": "float32"}, {"name": "13828", "shape": [3], "dtype": "int32"}, {"name": "13830", "shape": [3], "dtype": "int32"}, {"name": "PartitionedCall/model_8/tf.strided_slice_19/ones_like", "shape": [3], "dtype": "int32"}, {"name": "13838", "shape": [1, 2, 8400], "dtype": "float32"}, {"name": "13822", "shape": [3], "dtype": "int32"}, {"name": "13824", "shape": [3], "dtype": "int32"}, {"name": "PartitionedCall/model_8/tf.strided_slice_16/StridedSlice/strides", "shape": [3], "dtype": "int32"}, {"name": "PartitionedCall/model_8/tf.reshape_3/Reshape/shape", "shape": [4], "dtype": "int32"}, {"name": "PartitionedCall/model_8/tf.compat.v1.transpose_10/transpose/perm", "shape": [4], "dtype": "int32"}, {"name": "PartitionedCall/model_8/tf.compat.v1.transpose_11/transpose/perm", "shape": [4], "dtype": "int32"}, {"name": "13826", "shape": [1, 1, 16, 1], "dtype": "float32"}, {"name": "PartitionedCall/model_8/tf.compat.v1.transpose_14/transpose/perm", "shape": [4], "dtype": "int32"}, {"name": "PartitionedCall/model_8/tf.reshape_4/Reshape/shape", "shape": [3], "dtype": "int32"}, {"name": "13832", "shape": [3], "dtype": "int32"}, {"name": "13834", "shape": [3], "dtype": "int32"}, {"name": "PartitionedCall/model_8/tf.strided_slice_18/ones_like", "shape": [3], "dtype": "int32"}, {"name": "PartitionedCall/model_8/tf.concat_17/concat/axis", "shape": [], "dtype": "int32"}, {"name": "PartitionedCall/model_8/tf.math.multiply_252/Mul/y", "shape": [1, 1, 8400], "dtype": "float32"}, {"name": "13762", "shape": [3, 3, 64, 64], "dtype": "float32"}, {"name": "13772", "shape": [64], "dtype": "float32"}, {"name": "13786", "shape": [3, 3, 64, 64], "dtype": "float32"}, {"name": "13796", "shape": [64], "dtype": "float32"}, {"name": "13808", "shape": [1, 1, 64, 64], "dtype": "float32"}, {"name": "13818", "shape": [64], "dtype": "float32"}, {"name": "13748", "shape": [3, 3, 64, 80], "dtype": "float32"}, {"name": "13752", "shape": [80], "dtype": "float32"}, {"name": "13774", "shape": [3, 3, 80, 80], "dtype": "float32"}, {"name": "13776", "shape": [80], "dtype": "float32"}, {"name": "13806", "shape": [1, 1, 80, 80], "dtype": "float32"}, {"name": "13820", "shape": [80], "dtype": "float32"}, {"name": "PartitionedCall/model_8/tf.concat_10/concat/axis", "shape": [], "dtype": "int32"}, {"name": "PartitionedCall/model_8/tf.compat.v1.transpose_6/transpose/perm", "shape": [4], "dtype": "int32"}, {"name": "PartitionedCall/model_8/tf.reshape/Reshape/shape", "shape": [3], "dtype": "int32"}, {"name": "13760", "shape": [3, 3, 128, 64], "dtype": "float32"}, {"name": "13770", "shape": [64], "dtype": "float32"}, {"name": "13784", "shape": [3, 3, 64, 64], "dtype": "float32"}, {"name": "13794", "shape": [64], "dtype": "float32"}, {"name": "13804", "shape": [1, 1, 64, 64], "dtype": "float32"}, {"name": "13814", "shape": [64], "dtype": "float32"}, {"name": "13758", "shape": [3, 3, 128, 80], "dtype": "float32"}, {"name": "13768", "shape": [80], "dtype": "float32"}, {"name": "13782", "shape": [3, 3, 80, 80], "dtype": "float32"}, {"name": "13792", "shape": [80], "dtype": "float32"}, {"name": "13802", "shape": [1, 1, 80, 80], "dtype": "float32"}, {"name": "13816", "shape": [80], "dtype": "float32"}, {"name": "PartitionedCall/model_8/tf.concat_13/concat/axis", "shape": [], "dtype": "int32"}, {"name": "PartitionedCall/model_8/tf.compat.v1.transpose_7/transpose/perm", "shape": [4], "dtype": "int32"}, {"name": "PartitionedCall/model_8/tf.reshape_1/Reshape/shape", "shape": [3], "dtype": "int32"}, {"name": "13756", "shape": [3, 3, 256, 64], "dtype": "float32"}, {"name": "13766", "shape": [64], "dtype": "float32"}, {"name": "13780", "shape": [3, 3, 64, 64], "dtype": "float32"}, {"name": "13790", "shape": [64], "dtype": "float32"}, {"name": "13800", "shape": [1, 1, 64, 64], "dtype": "float32"}, {"name": "13810", "shape": [64], "dtype": "float32"}, {"name": "13742", "shape": [4], "dtype": "int32"}, {"name": "13744", "shape": [4], "dtype": "int32"}, {"name": "PartitionedCall/model_8/tf.strided_slice_14/ones_like", "shape": [4], "dtype": "int32"}, {"name": "13712", "shape": [4], "dtype": "int32"}, {"name": "13714", "shape": [4], "dtype": "int32"}, {"name": "PartitionedCall/model_8/tf.strided_slice_12/ones_like", "shape": [4], "dtype": "int32"}, {"name": "13682", "shape": [4], "dtype": "int32"}, {"name": "13684", "shape": [4], "dtype": "int32"}, {"name": "PartitionedCall/model_8/tf.strided_slice_10/ones_like", "shape": [4], "dtype": "int32"}, {"name": "PartitionedCall/model_8/lambda_1//model.13/Resize/size", "shape": [2], "dtype": "int32"}, {"name": "PartitionedCall/model_8/tf.concat_7/concat/axis", "shape": [], "dtype": "int32"}, {"name": "13666", "shape": [1, 1, 192, 64], "dtype": "float32"}, {"name": "13668", "shape": [64], "dtype": "float32"}, {"name": "13670", "shape": [4], "dtype": "int32"}, {"name": "13672", "shape": [4], "dtype": "int32"}, {"name": "PartitionedCall/model_8/tf.strided_slice_11/ones_like", "shape": [4], "dtype": "int32"}, {"name": "13674", "shape": [3, 3, 32, 32], "dtype": "float32"}, {"name": "13676", "shape": [32], "dtype": "float32"}, {"name": "13678", "shape": [3, 3, 32, 32], "dtype": "float32"}, {"name": "13680", "shape": [32], "dtype": "float32"}, {"name": "PartitionedCall/model_8/tf.concat_8/concat/axis", "shape": [], "dtype": "int32"}, {"name": "13686", "shape": [1, 1, 96, 64], "dtype": "float32"}, {"name": "13688", "shape": [64], "dtype": "float32"}, {"name": "13690", "shape": [4, 2], "dtype": "int32"}, {"name": "13692", "shape": [3, 3, 64, 64], "dtype": "float32"}, {"name": "13694", "shape": [64], "dtype": "float32"}, {"name": "13658", "shape": [4], "dtype": "int32"}, {"name": "13660", "shape": [4], "dtype": "int32"}, {"name": "PartitionedCall/model_8/tf.strided_slice_8/ones_like", "shape": [4], "dtype": "int32"}, {"name": "PartitionedCall/model_8/lambda//model.10/Resize/size", "shape": [2], "dtype": "int32"}, {"name": "PartitionedCall/model_8/tf.concat_5/concat/axis", "shape": [], "dtype": "int32"}, {"name": "13642", "shape": [1, 1, 384, 128], "dtype": "float32"}, {"name": "13644", "shape": [128], "dtype": "float32"}, {"name": "13646", "shape": [4], "dtype": "int32"}, {"name": "13648", "shape": [4], "dtype": "int32"}, {"name": "PartitionedCall/model_8/tf.strided_slice_9/ones_like", "shape": [4], "dtype": "int32"}, {"name": "13650", "shape": [3, 3, 64, 64], "dtype": "float32"}, {"name": "13652", "shape": [64], "dtype": "float32"}, {"name": "13654", "shape": [3, 3, 64, 64], "dtype": "float32"}, {"name": "13656", "shape": [64], "dtype": "float32"}, {"name": "PartitionedCall/model_8/tf.concat_6/concat/axis", "shape": [], "dtype": "int32"}, {"name": "13662", "shape": [1, 1, 192, 128], "dtype": "float32"}, {"name": "13664", "shape": [128], "dtype": "float32"}, {"name": "PartitionedCall/model_8/tf.concat_9/concat/axis", "shape": [], "dtype": "int32"}, {"name": "13696", "shape": [1, 1, 192, 128], "dtype": "float32"}, {"name": "13698", "shape": [128], "dtype": "float32"}, {"name": "13700", "shape": [4], "dtype": "int32"}, {"name": "13702", "shape": [4], "dtype": "int32"}, {"name": "PartitionedCall/model_8/tf.strided_slice_13/ones_like", "shape": [4], "dtype": "int32"}, {"name": "13704", "shape": [3, 3, 64, 64], "dtype": "float32"}, {"name": "13706", "shape": [64], "dtype": "float32"}, {"name": "13708", "shape": [3, 3, 64, 64], "dtype": "float32"}, {"name": "13710", "shape": [64], "dtype": "float32"}, {"name": "PartitionedCall/model_8/tf.concat_11/concat/axis", "shape": [], "dtype": "int32"}, {"name": "13716", "shape": [1, 1, 192, 128], "dtype": "float32"}, {"name": "13718", "shape": [128], "dtype": "float32"}, {"name": "13720", "shape": [4, 2], "dtype": "int32"}, {"name": "13722", "shape": [3, 3, 128, 128], "dtype": "float32"}, {"name": "13724", "shape": [128], "dtype": "float32"}, {"name": "13626", "shape": [4], "dtype": "int32"}, {"name": "13628", "shape": [4], "dtype": "int32"}, {"name": "PartitionedCall/model_8/tf.strided_slice_6/ones_like", "shape": [4], "dtype": "int32"}, {"name": "13596", "shape": [4], "dtype": "int32"}, {"name": "13598", "shape": [4], "dtype": "int32"}, {"name": "PartitionedCall/model_8/tf.strided_slice_4/ones_like", "shape": [4], "dtype": "int32"}, {"name": "13558", "shape": [4], "dtype": "int32"}, {"name": "13560", "shape": [4], "dtype": "int32"}, {"name": "PartitionedCall/model_8/tf.strided_slice_2/ones_like", "shape": [4], "dtype": "int32"}, {"name": "13520", "shape": [4], "dtype": "int32"}, {"name": "13522", "shape": [4], "dtype": "int32"}, {"name": "PartitionedCall/model_8/tf.strided_slice/ones_like", "shape": [4], "dtype": "int32"}, {"name": "13492", "shape": [4, 2], "dtype": "int32"}, {"name": "13494", "shape": [3, 3, 3, 16], "dtype": "float32"}, {"name": "13496", "shape": [16], "dtype": "float32"}, {"name": "13498", "shape": [4, 2], "dtype": "int32"}, {"name": "13500", "shape": [3, 3, 16, 32], "dtype": "float32"}, {"name": "13502", "shape": [32], "dtype": "float32"}, {"name": "13504", "shape": [1, 1, 32, 32], "dtype": "float32"}, {"name": "13506", "shape": [32], "dtype": "float32"}, {"name": "13508", "shape": [4], "dtype": "int32"}, {"name": "13510", "shape": [4], "dtype": "int32"}, {"name": "PartitionedCall/model_8/tf.strided_slice_1/ones_like", "shape": [4], "dtype": "int32"}, {"name": "13512", "shape": [3, 3, 16, 16], "dtype": "float32"}, {"name": "13514", "shape": [16], "dtype": "float32"}, {"name": "13516", "shape": [3, 3, 16, 16], "dtype": "float32"}, {"name": "13518", "shape": [16], "dtype": "float32"}, {"name": "PartitionedCall/model_8/tf.concat/concat/axis", "shape": [], "dtype": "int32"}, {"name": "13524", "shape": [1, 1, 48, 32], "dtype": "float32"}, {"name": "13526", "shape": [32], "dtype": "float32"}, {"name": "13528", "shape": [4, 2], "dtype": "int32"}, {"name": "13530", "shape": [3, 3, 32, 64], "dtype": "float32"}, {"name": "13532", "shape": [64], "dtype": "float32"}, {"name": "13534", "shape": [1, 1, 64, 64], "dtype": "float32"}, {"name": "13536", "shape": [64], "dtype": "float32"}, {"name": "13538", "shape": [4], "dtype": "int32"}, {"name": "13540", "shape": [4], "dtype": "int32"}, {"name": "PartitionedCall/model_8/tf.strided_slice_3/ones_like", "shape": [4], "dtype": "int32"}, {"name": "13542", "shape": [3, 3, 32, 32], "dtype": "float32"}, {"name": "13544", "shape": [32], "dtype": "float32"}, {"name": "13546", "shape": [3, 3, 32, 32], "dtype": "float32"}, {"name": "13548", "shape": [32], "dtype": "float32"}, {"name": "13550", "shape": [3, 3, 32, 32], "dtype": "float32"}, {"name": "13552", "shape": [32], "dtype": "float32"}, {"name": "13554", "shape": [3, 3, 32, 32], "dtype": "float32"}, {"name": "13556", "shape": [32], "dtype": "float32"}, {"name": "PartitionedCall/model_8/tf.concat_1/concat/axis", "shape": [], "dtype": "int32"}, {"name": "13562", "shape": [1, 1, 128, 64], "dtype": "float32"}, {"name": "13564", "shape": [64], "dtype": "float32"}, {"name": "13566", "shape": [4, 2], "dtype": "int32"}, {"name": "13568", "shape": [3, 3, 64, 128], "dtype": "float32"}, {"name": "13570", "shape": [128], "dtype": "float32"}, {"name": "13572", "shape": [1, 1, 128, 128], "dtype": "float32"}, {"name": "13574", "shape": [128], "dtype": "float32"}, {"name": "13576", "shape": [4], "dtype": "int32"}, {"name": "13578", "shape": [4], "dtype": "int32"}, {"name": "PartitionedCall/model_8/tf.strided_slice_5/ones_like", "shape": [4], "dtype": "int32"}, {"name": "13580", "shape": [3, 3, 64, 64], "dtype": "float32"}, {"name": "13582", "shape": [64], "dtype": "float32"}, {"name": "13584", "shape": [3, 3, 64, 64], "dtype": "float32"}, {"name": "13586", "shape": [64], "dtype": "float32"}, {"name": "13588", "shape": [3, 3, 64, 64], "dtype": "float32"}, {"name": "13590", "shape": [64], "dtype": "float32"}, {"name": "13592", "shape": [3, 3, 64, 64], "dtype": "float32"}, {"name": "13594", "shape": [64], "dtype": "float32"}, {"name": "PartitionedCall/model_8/tf.concat_2/concat/axis", "shape": [], "dtype": "int32"}, {"name": "13600", "shape": [1, 1, 256, 128], "dtype": "float32"}, {"name": "13602", "shape": [128], "dtype": "float32"}, {"name": "13604", "shape": [4, 2], "dtype": "int32"}, {"name": "13606", "shape": [3, 3, 128, 256], "dtype": "float32"}, {"name": "13608", "shape": [256], "dtype": "float32"}, {"name": "13610", "shape": [1, 1, 256, 256], "dtype": "float32"}, {"name": "13612", "shape": [256], "dtype": "float32"}, {"name": "13614", "shape": [4], "dtype": "int32"}, {"name": "13616", "shape": [4], "dtype": "int32"}, {"name": "PartitionedCall/model_8/tf.strided_slice_7/ones_like", "shape": [4], "dtype": "int32"}, {"name": "13618", "shape": [3, 3, 128, 128], "dtype": "float32"}, {"name": "13620", "shape": [128], "dtype": "float32"}, {"name": "13622", "shape": [3, 3, 128, 128], "dtype": "float32"}, {"name": "13624", "shape": [128], "dtype": "float32"}, {"name": "PartitionedCall/model_8/tf.concat_3/concat/axis", "shape": [], "dtype": "int32"}, {"name": "13630", "shape": [1, 1, 384, 256], "dtype": "float32"}, {"name": "13632", "shape": [256], "dtype": "float32"}, {"name": "13634", "shape": [1, 1, 256, 128], "dtype": "float32"}, {"name": "13636", "shape": [128], "dtype": "float32"}, {"name": "PartitionedCall/model_8/tf.concat_4/concat/axis", "shape": [], "dtype": "int32"}, {"name": "13638", "shape": [1, 1, 512, 256], "dtype": "float32"}, {"name": "13640", "shape": [256], "dtype": "float32"}, {"name": "PartitionedCall/model_8/tf.concat_12/concat/axis", "shape": [], "dtype": "int32"}, {"name": "13726", "shape": [1, 1, 384, 256], "dtype": "float32"}, {"name": "13728", "shape": [256], "dtype": "float32"}, {"name": "13730", "shape": [4], "dtype": "int32"}, {"name": "13732", "shape": [4], "dtype": "int32"}, {"name": "PartitionedCall/model_8/tf.strided_slice_15/ones_like", "shape": [4], "dtype": "int32"}, {"name": "13734", "shape": [3, 3, 128, 128], "dtype": "float32"}, {"name": "13736", "shape": [128], "dtype": "float32"}, {"name": "13738", "shape": [3, 3, 128, 128], "dtype": "float32"}, {"name": "13740", "shape": [128], "dtype": "float32"}, {"name": "PartitionedCall/model_8/tf.concat_14/concat/axis", "shape": [], "dtype": "int32"}, {"name": "13746", "shape": [1, 1, 384, 256], "dtype": "float32"}, {"name": "13750", "shape": [256], "dtype": "float32"}, {"name": "13754", "shape": [3, 3, 256, 80], "dtype": "float32"}, {"name": "13764", "shape": [80], "dtype": "float32"}, {"name": "13778", "shape": [3, 3, 80, 80], "dtype": "float32"}, {"name": "13788", "shape": [80], "dtype": "float32"}, {"name": "13798", "shape": [1, 1, 80, 80], "dtype": "float32"}, {"name": "13812", "shape": [80], "dtype": "float32"}, {"name": "PartitionedCall/model_8/tf.concat_15/concat/axis", "shape": [], "dtype": "int32"}, {"name": "PartitionedCall/model_8/tf.compat.v1.transpose_8/transpose/perm", "shape": [4], "dtype": "int32"}, {"name": "PartitionedCall/model_8/tf.reshape_2/Reshape/shape", "shape": [3], "dtype": "int32"}, {"name": "PartitionedCall/model_8/tf.concat_16/concat/axis", "shape": [], "dtype": "int32"}, {"name": "13842", "shape": [3], "dtype": "int32"}, {"name": "13844", "shape": [3], "dtype": "int32"}, {"name": "PartitionedCall/model_8/tf.strided_slice_17/StridedSlice/strides", "shape": [3], "dtype": "int32"}, {"name": "PartitionedCall/model_8/output0/concat/axis", "shape": [], "dtype": "int32"}]}]}